~/epoch=22-step=22.ckpt (torch, 525545 bytes, 18 tensors)

backbone.convs.0.conv.bias f4 [64]
00000000: a4fa 3f3a 77d8 7b3c 3c19 23ba 8da2 63bc
00000010: 0e99 a3ba 563a 863c dc46 af3b 878e 1f3c
00000020: 6a31 f5bb fa7e 333a c4c9 123c 897c c63b
00000030: 5a83 893b 6f7a cfbb 9a4c d1bb 6a61 2cba
00000040: 4ca3 233b 81fb 80ba 20e7 d93b 8e51 88bb
00000050: 8c6c 463b ebc4 283b a2a9 9bbb 162c 933b
00000060: 85f5 493c 82fb 613c 3794 ddbb f3b4 e8bb
00000070: 9ef2 363b 12f0 943b 4968 24bc 62c6 beba
00000080: 549a eebb 2bbb 41bc 4f19 aa3c b166 a1bb
00000090: bd54 fd3b 78aa 743c 8c20 14b8 cc94 6a3c
000000a0: 4d1a 7f3c 7a91 d0bb 5dae 063c 6984 7b3c
000000b0: 4989 183c d574 143c 9c08 b53b 70bf 483c
000000c0: 1e49 183c 2d24 a23b 85b4 ebbb 3933 533b
000000d0: 193f d6b9 6a6e f23b 2c16 5c3c 80dd e03b
000000e0: 63c3 833a d726 ea3b 655a 2d3c 3c05 03bc
000000f0: 2e62 3a3c a97b 253c b01c 20bc 381c 94bb
0.000732342 0.015371433 -0.0006221717 -0.013893736 -0.0012481527 0.016385239 0.0053490233 0.009738571
-0.0074826973 0.0006847229 0.0089592375 0.006057326 0.0041965665 -0.006331734 -0.0063873054 -0.0006575795
0.0024969159 -0.0009840579 0.0066498667 -0.0041601127 0.0030277101 0.0025752138 -0.0047504464 0.0044913394
0.012326603 0.013792874 -0.0067620534 -0.007101649 0.0027915607 0.00454522 -0.010034629 -0.0014554972
-0.007281581 -0.0118244095 0.020764021 -0.004925572 0.007731049 0.014933221 -3.531626e-05 0.0143177025
0.015570235 -0.0063649984 0.008220282 0.015351393 0.009310075 0.009061058 0.005524708 0.0122526735
0.009294776 0.00494816 -0.0071931505 0.0032226576 -0.00040864272 0.0073984163 0.013433021 0.0068623424
0.0010052737 0.0071457434 0.010580634 -0.007996853 0.011375947 0.010100284 -0.009772465 -0.0045199655

backbone.convs.0.conv.lin.weight f4 [64, 500]
00000000: 941f b63e 6856 76be be26 08bd edbc b83e
00000010: fa51 dbbe 3e25 bbbe 009f 9b3e b798 abbe
00000020: f4bd 4d3e 5996 913e 5cf6 a5be 6de0 00be
00000030: 55b0 d6be 294f 473e d066 1c3e 149e 483e
00000040: bc49 99be 30b5 953e 5d2e afbe 1e04 babe
00000050: e358 33bd 84e9 b8bd a8a2 a7be d2a7 3fbe
00000060: c8b2 963e 7b02 ce3e d712 9ebe da18 d83c
00000070: 7ebe 133f 90a6 983d 84d1 c43c f3e2 e1be
00000080: 783b 193f 410a ccbd 858e 523e 5d01 b9be
00000090: 0bf4 023f f6fe a6be 7e50 85be 1ce8 0d3f
000000a0: 2cd4 dd3e 0ca2 d5be 08d2 0f3e 3768 cfbe
000000b0: c80a f33e 9771 b03e a30e ac3d 532f 053e
000000c0: ac92 a83e 10a7 3fbe 2ef5 17be 6641 023f
000000d0: d42d 51bd 7c29 043f 7caf 14be f114 b4be
000000e0: 13cc 0a3e d551 1bbf 32fd 5cbc 9326 babe
000000f0: c261 cdbe 66cd 9cbc 508b e33e bed7 e2be
00000100: e523 2bbd 6d43 6f3e 4ed0 d6be cb20 653d
00000110: 49d3 613e f51d 07bf 3a33 19bf 887d 183e
00000120: ebe1 c2be 7f52 e73a f47b 83bd 9e29 d93e
00000130: 83cd d23e 8956 94be bebb c7be 4839 8fbe
00000140: d836 1e3e 6738 f63e 66e9 0a3f 10f5 33be
00000150: a76e 9d3e 15e4 62be fcde 253e 98ea 1cbf
00000160: ba23 62bd 53c0 d13e 5b38 c7bc 044a 03be
00000170: 1049 4dbe 5332 883e 1e4d 773e 1e24 b4be
00000180: 78f1 b33d beda 1cbe c421 90bd 3cb9 70be
00000190: 21ec f23e 4709 e1be 2bae 0ebf 1393 3e3c
000001a0: 6604 9d3e 2c16 ad3e 0777 333d 582a 7dbe
000001b0: d4dd 0d3e d1aa 1d3e 60ae e7bd 3a44 07bf
000001c0: 6c5c 09bf e6af a6bd 9698 02bf 6c5a fabe
000001d0: d1d8 09bf 44d0 acbe 306d a0be 7a54 21be
000001e0: 6f66 a63d e888 0ebf 702f 21be 72c1 afbe
000001f0: 1c3b e4be 2ff5 f73e 1fdd d5bc 1d7e e2bd
00000200: a251 8fbe f24a 00bf 659e b6be 4864 a3be
00000210: 781d e2be b141 d63d 7c38 eabe a6c8 b43e
00000220: 7017 193e 6d8d 8dbe 7df4 52be bca9 8dbd
00000230: 0a20 b43e c0b7 a93d 7300 f6be 1bc8 19be
00000240: ef76 c13e 6965 eabe 8a73 d33d f8b1 53be
00000250: a394 153e 1d71 b63e 2945 e7be 3c0f a4be
00000260: acd4 e0bc e7d5 b43c 87f3 ac3e fa94 ef3e
00000270: 2a9c 70be d102 413e 1322 08bf 8ac7 833e
00000280: 543a d23d 5447 edbd 1723 ce3e c37f 16bf
00000290: fa2a 843e 6d41 90be 7401 4a3e ca87 18bf
000002a0: a7e6 89be 218f 033d 4cb4 bd3e 5c36 2dbd
000002b0: 4743 033d bf8a b9be 651f 733e a20b 12bf
000002c0: 7f80 dbbe 6ca5 c7bd aadf e6be 7832 3bbe
000002d0: 8e7f 4a3e e382 143e e4a5 a3be e7b2 acbe
000002e0: 4f73 8ebe 952f 0f3f 6f3d 923d 324d 983d
000002f0: 6731 efbe 2032 053f fa54 e03e d132 073f
00000300: f8ae aa3c 00f2 a0be 4695 b93e 29ea 7a3e
00000310: 42c2 d4be 900c db3e 38d3 f9be 9fb2 e53a
00000320: 4838 b13e 8573 bc3e 4fb6 8b3e acad dfbb
00000330: b575 b03d f4e9 82be 4ad9 343e ee9a ee3e
00000340: d811 52be 07c8 ef3e 267e f63e 0baa 05bf
00000350: 2e12 c33e e560 6f3e 4d7b 013f 4ea1 a03e
00000360: 0016 7d3e 7285 e6be 4ca2 f53e 2182 f83e
00000370: d9e0 ebbe 642d 0e3e 992b 8abc e44f 1cbe
00000380: a683 88be 4151 8cbe 65a9 e7be 1e14 04bf
00000390: 9cd6 d33d 5a97 773e dce9 e33e 0674 9a3e
000003a0: c199 02bf 2ef2 3e3e 8cbb b5be 3bb5 1fbf
000003b0: 7170 0d3f 1c7b 333e d9d6 b3be e870 4dbe
000003c0: d931 29bd 077f 17bf d84b 7d3e 7b47 f73e
000003d0: bfe5 eb3e 45eb 03bf 3195 643e 7212 603e
000003e0: 1d4b 093e de30 d8be be78 c33d 433b 02be
000003f0: f4ab 6dbc 6e85 4b3e 167c 89be 422a c2bc
0.35570967 -0.24056399 -0.033240072 0.3608164 -0.4283598 -0.3655185 0.30394745 -0.3351495
0.20091993 0.2843502 -0.3241452 -0.12585612 -0.41931406 0.19463791 0.15273595 0.19591552
-0.29939067 0.29239798 -0.3421506 -0.36331266 -0.04378594 -0.090289146 -0.32741284 -0.18716362
0.29433274 0.40236267 -0.3087375 0.026379038 0.57712543 0.07453644 0.024025686 -0.4411846
0.5985637 -0.09962893 0.2056218 -0.36133853 0.5115363 -0.32616395 -0.26037973 0.55432296
0.43325937 -0.41725194 0.14044964 -0.40509197 0.47469163 0.34461662 0.08401229 0.13006334
0.32924402 -0.18716073 -0.14839622 0.5088104 -0.051069096 0.516258 -0.14520067 -0.35172227
0.1355441 -0.6067174 -0.013488101 -0.36357555 -0.40113646 -0.01914091 0.44442225 -0.44305223
-0.04178228 0.23365565 -0.419558 0.055939477 0.22053255 -0.52780086 -0.5984379 0.14891636
-0.38062987 0.0017648487 -0.064201266 0.42414564 0.41172418 -0.2897227 -0.39010423 -0.2797339
0.15450609 0.48089907 0.5426239 -0.17573953 0.30748484 -0.22157319 0.16198343 -0.6129546
-0.055209853 0.40967044 -0.024318865 -0.12821203 -0.20047402 0.26600894 0.24150512 -0.35183805
0.08786291 -0.15317819 -0.0703769 -0.23508161 0.47445777 -0.4395239 -0.5573451 0.011631745
0.30667418 0.33805978 0.043814685 -0.24723184 0.13854152 0.15397193 -0.11312556 -0.5283848
-0.5365665 -0.08139019 -0.5101408 -0.4889711 -0.5384646 -0.33752644 -0.31333303 -0.15754882
0.081250064 -0.5567765 -0.15740752 -0.34327275 -0.44576347 0.48429248 -0.026106415 -0.110592104
-0.27991968 -0.5011436 -0.3566772 -0.31912446 -0.44163108 0.104617484 -0.4574622 0.35309333
0.14950347 -0.27646962 -0.20601077 -0.0691714 0.35180694 0.08287001 -0.48047218 -0.1501774
0.37786052 -0.45780495 0.10324772 -0.20673358 0.14607482 0.35633174 -0.45169953 -0.32042873
-0.02744516 0.022074653 0.33779547 0.46793348 -0.23497072 0.1884873 -0.53176993 0.25738174
0.102650315 -0.115858704 0.40261146 -0.587887 0.2581404 -0.28174916 0.19727117 -0.595822
-0.26933786 0.03211892 0.37051618 -0.04228817 0.032046583 -0.36238667 0.23742445 -0.57049
-0.42871472 -0.097483486 -0.45092517 -0.18280971 0.19775221 0.14503054 -0.31962502 -0.33730242
-0.27822348 0.5593198 0.07140624 0.07436599 -0.46717378 0.5202961 0.43814832 0.52811915
0.020835385 -0.3143463 0.362467 0.24503388 -0.41554457 0.42783022 -0.4879396 0.0017524547
0.34613252 0.36806884 0.27287528 -0.006826123 0.08616201 -0.25569117 0.17661014 0.46602577
-0.2051462 0.46832296 0.4814312 -0.5221259 0.38099808 0.23376806 0.5057877 0.31373066
0.24715424 -0.45023686 0.47975385 0.4853678 -0.46069983 0.13884503 -0.016866492 -0.15264851
-0.2666294 -0.27405742 -0.45246425 -0.51593196 0.10343668 0.2417883 0.44514358 0.30166644
-0.5101586 0.18647072 -0.3549465 -0.6238591 0.55249697 0.17527431 -0.35124853 -0.20062602
-0.041307304 -0.59178203 0.24735963 0.48296723 0.4607372 -0.5153087 0.22322537 0.21882036
0.1340756 -0.42224783 0.09544514 -0.12717919 -0.014506329 0.19875118 -0.26852483 -0.02370179

backbone.convs.0.conv.lin.parametrizations.weight.original f4 [64, 500]
00000000: 20d0 823d 92ef 30bd f195 c3bb e4b0 843d
00000010: bc87 9dbd 926b 86bd fc8d 5f3d fd80 76bd
00000020: 07c7 133d 0924 513d 0069 6ebd a922 b9bc
00000030: 2134 9abd 3128 0f3d 05ad e03c c018 103d
00000040: fe33 5cbd 580f 573d 38a7 7bbd e79b 85bd
00000050: a8d1 00bc ebd0 84bc 44d0 70bd dda8 09bd
00000060: a47b 583d 40f8 933d e613 63bd 1337 9b3b
00000070: 353d d43d 9749 5b3c 325e 8d3b 1f3f a2bd
00000080: 811f dc3d 148e 92bc 563c 173d 0ce2 84bd
00000090: 591e bc3d 1ce5 6fbd a882 3fbd 7ada cb3d
000000a0: 0155 9f3d fe71 99bd 449a ce3c 32f9 94bd
000000b0: 9f91 ae3d 8b77 7d3d 622a 773c 0353 bf3c
000000c0: 0d29 723d 52a8 09bd c64a dabc b91d bb3d
000000d0: 033f 16bc e0da bd3d 6797 d5bc bb58 81bd
000000e0: f262 c73c 221f dfbd 97ba 1ebb a7b4 85bd
000000f0: cf84 93bd 6440 61bb ed6f a33d f3ee a2bd
00000100: 2cd9 f5bb ceda 2b3d 184b 9abd 2b93 243c
00000110: df33 223d 9119 c2bd aa13 dcbd a50e db3c
00000120: 39fa 8bbd 9f26 a639 96e1 3cbc fffa 9b3d
00000130: 9569 973d 9f17 55bd 2f76 8fbd d6be 4dbd
00000140: 9e47 e33c 05da b03d 128d c73d d541 01bd
00000150: 0a28 623d d0f7 22bd 6c47 ee3c 556a e1bd
00000160: a66d 22bc 3ca8 963d d017 8fbb da99 bcbc
00000170: 1173 13bd 94a6 433d c6a0 313d a263 81bd
00000180: 403f 813c 8e53 e1bc ce0c 4fbc 4de7 2cbd
00000190: 9c7b ae3d c6a2 a1bd fff6 ccbd 17e2 083b
000001a0: 668f 613d f7a4 783d 4ee7 003c 0ed7 35bd
000001b0: b5cb cb3c 777e e23c 9e68 a6bc 8b50 c2bd
000001c0: cf52 c5bd 8973 6fbc f89a bbbd f5d1 b3bd
000001d0: 8005 c6bd 8a40 78bd 3175 66bd 72c1 e7bc
000001e0: ff09 6f3c 78c1 ccbd 3b8c e7bc 837a 7cbd
000001f0: 32ee a3bd 7e19 b23d 6c9c 99bb 92ae a2bc
00000200: d1e1 4dbd ef4b b8bd 362b 83bd a7b7 6abd
00000210: 2769 a2bd a9e4 993c 913b a8bd cfd9 813d
00000220: bdeb db3c 3658 4bbd 9485 17bd df80 4bbc
00000230: b460 813d 11ce 733c d5b1 b0bd 87e9 dcbc
00000240: 81f5 8a3d d65b a8bd d5e0 973c ad0d 18bd
00000250: 96e0 d63c b00a 833d 0b1d a6bd 3aad 6bbd
00000260: fd7c a1bb 54e3 813b 3273 783d 6215 ac3d
00000270: 6bd2 2cbd 1aa2 0a3d 3c8f c3bd 2b4e 3d3d
00000280: deff 963c dc6d aabc ab0f 943d 5932 d8bd
00000290: 04dd 3d3d 4a3a 4fbd 0118 113d 631d dbbd
000002a0: 6119 46bd 22fd bc3b 1342 883d 34d3 f8bb
000002b0: 2b90 bc3b ba44 85bd 6ea0 2e3d 85cc d1bd
000002c0: 26a9 9dbd 2766 8fbc 24d4 a5bd 1375 06bd
000002d0: 9572 113d 5557 d53c e615 6bbd 5d16 78bd
000002e0: 71a2 4cbd e8b0 cd3d 0f14 523c 37c9 5a3c
000002f0: dccd abbd 0957 bf3d 4521 a13d 8837 c23d
00000300: 3631 753b fa33 67bd 494c 853d 3439 343d
00000310: 41d1 98bd e155 9d3d d970 b3bd eafb a439
00000320: f894 7e3d ac5b 873d 6fb3 483d 1aa9 a0ba
00000330: 757d 7d3c db0f 3cbd c3e5 013d c861 ab3d
00000340: c9e2 16bd 0d3a ac3d 1e0c b13d 4e03 c0bd
00000350: e31c 8c3d f9ef 2b3d 2601 ba3d 0dc0 663d
00000360: 71c8 353d 5893 a5bd 346e b03d ba7e b23d
00000370: 5f6c a9bd 013e cc3c 6b7c 46bb 188c e0bc
00000380: 671b 44bd 0592 49bd 0a65 a6bd 2ebc bdbd
00000390: fe27 983c 18d6 313d d6b3 a33d 7fe0 5d3d
000003a0: a69c bbbd 6626 093d 4688 82bd ee6c e5bd
000003b0: 922e cb3d 3dea 003d 212c 81bd b08f 13bd
000003c0: b60d f3bb 0ca1 d9bd 1eef 353d ba9c b13d
000003d0: e46f a93d 7f81 bdbd e62e 243d 7cf1 203d
000003e0: f139 c53c 5448 9bbd 8e66 8c3c e714 bbbc
000003f0: 22b6 2abb ad2e 123d 4b80 45bd 4f76 8bbb
0.06387353 -0.043197222 -0.005968802 0.06479052 -0.07691905 -0.06563486 0.054578766 -0.060181607
0.03607848 0.051059756 -0.058205605 -0.022599535 -0.07529474 0.03495044 0.027426252 0.035179853
-0.05376052 0.052504867 -0.06143877 -0.06523877 -0.007862486 -0.016212901 -0.058792368 -0.033608306
0.052852288 0.07225084 -0.0554389 0.00473679 0.10363237 0.013384244 0.0043142075 -0.07922196
0.107481964 -0.017890014 0.036922775 -0.064884275 0.09185476 -0.058568105 -0.046755463 0.099537805
0.07779885 -0.074924454 0.025220044 -0.07274093 0.08523869 0.061881583 0.015085788 0.023355013
0.05912118 -0.03360779 -0.026646983 0.091365285 -0.009170297 0.09270263 -0.02607317 -0.06315752
0.024339173 -0.1089461 -0.0024220103 -0.06528597 -0.072030656 -0.0034370655 0.079803325 -0.07955732
-0.0075026955 0.041956715 -0.07533854 0.010044853 0.03960025 -0.09477533 -0.10745938 0.026740381
-0.068348356 0.00031690762 -0.011528393 0.07616233 0.07393185 -0.05202448 -0.070049636 -0.050230823
0.02774411 0.08635334 0.09743704 -0.031556923 0.055213965 -0.039787114 0.029086791 -0.11006609
-0.009913838 0.07356307 -0.0043668523 -0.02302258 -0.035998408 0.047766283 0.043366216 -0.063178316
0.01577723 -0.027505662 -0.01263733 -0.042212773 0.0851967 -0.07892375 -0.10008048 0.0020886713
0.055068396 0.060704198 0.007867647 -0.044394545 0.024877409 0.027648194 -0.020313557 -0.094880186
-0.09634935 -0.014614948 -0.09160417 -0.087802805 -0.09669018 -0.060608424 -0.056264106 -0.028290484
0.014589786 -0.09997839 -0.02826511 -0.061640274 -0.080044165 0.086962685 -0.0046878364 -0.019858632
-0.050264183 -0.08998858 -0.06404726 -0.05730405 -0.079302125 0.018785791 -0.082144864 0.06340372
0.026845807 -0.04964467 -0.036992624 -0.012420862 0.06317273 0.014880673 -0.08627669 -0.026966823
0.067851074 -0.08220641 0.018539825 -0.037122417 0.026230138 0.06398523 -0.08111008 -0.05753825
-0.00492823 0.003963867 0.060656734 0.08402516 -0.042192858 0.033846 -0.09548804 0.046217125
0.018432554 -0.020804338 0.07229551 -0.10556478 0.046353355 -0.0505927 0.035423283 -0.106989644
-0.048364047 0.0057674805 0.06653228 -0.0075935367 0.005754491 -0.06507249 0.042633466 -0.10244087
-0.07698278 -0.017504765 -0.08097103 -0.032826494 0.035509665 0.02604262 -0.05739393 -0.060568202
-0.049959604 0.10043508 0.012822165 0.013353637 -0.08388874 0.093427725 0.07867674 0.09483248
0.0037413365 -0.056446053 0.06508691 0.043999866 -0.07461787 0.07682396 -0.08761758 0.00031468208
0.062153786 0.06609282 0.048999246 -0.0012257427 0.015471806 -0.04591356 0.03171326 0.0836826
-0.036837373 0.0840951 0.08644889 -0.0937563 0.06841447 0.041976903 0.0908225 0.056335498
0.04438061 -0.08084744 0.086147696 0.087155774 -0.08272623 0.02493191 -0.0030286561 -0.027410552
-0.047877695 -0.04921152 -0.081247404 -0.09264408 0.018573757 0.043417066 0.07993285 0.054169174
-0.09160738 0.033483885 -0.06373648 -0.11202417 0.09920992 0.031473387 -0.06307245 -0.036025703
-0.007417406 -0.106264204 0.044417493 0.08672471 0.082732946 -0.09253215 0.04008379 0.039292797
0.02407548 -0.07582155 0.017138746 -0.022837115 -0.00260485 0.035689045 -0.048218053 -0.004256047

backbone.convs.0.conv.lin.parametrizations.weight.0.u f4 [64]
00000000: cd37 923d 803f 803a 39b7 06be 68e4 d1bd
00000010: 403b 17be 5396 2a3e 5d9b 073e 0596 debd
00000020: 6862 fe3d c1ae f83d b0fa 85be d881 423d
00000030: a072 c23d 7275 983d f373 8c3e 0408 f33d
00000040: debd 0abd 54bb d3bc c790 0e3e 4b4b 823d
00000050: 7bff c43d a769 5bbc cb59 d2bc fdcc 10be
00000060: f8e6 bb3d 1b99 c03d d821 0d3d 37f3 e33b
00000070: 76bf a83d b854 35be fb5c 8e3d 30bb 503e
00000080: 72b3 6e3c 8bb8 533c b4db 04be f26a 593e
00000090: 0d7f c7bd e5c3 4ebe 0102 c33d e347 50be
000000a0: adc6 cf3c 765f ee3d 103b 2abe b385 ddbd
000000b0: b698 883d c811 31be 845b 1abe 4cb5 84bd
000000c0: da3d 4bbe 6f81 9ebc adfb 823d 3146 b8bc
000000d0: 943d b33a 9616 233e 4d16 07be 64ff 9a3c
000000e0: 0016 15be 47cd 673d 8cf6 3ebe e50e e2bd
000000f0: befd 27be 8910 50be 601e 11be 6a8b 213c
0.071395494 0.000978455 -0.13155831 -0.10248643 -0.14768696 0.16658907 0.1324286 -0.10868458
0.12421113 0.12142707 -0.26167822 0.04748711 0.09494519 0.07444276 0.27432212 0.11866763
-0.033872478 -0.025846161 0.13922416 0.06362017 0.096190415 -0.013391889 -0.025677582 -0.14140697
0.09174913 0.094042026 0.034456104 0.0069564837 0.08239643 -0.17708099 0.06951328 0.20383906
0.01456915 0.012922416 -0.12974435 0.21232203 -0.0974103 -0.20191915 0.095218666 -0.20339923
0.02536329 0.116393015 -0.16624093 -0.10816517 0.06669752 -0.1729194 -0.15073973 -0.06479892
-0.19847813 -0.019348828 0.063956596 -0.022494407 0.0013674968 0.15926585 -0.13192101 0.018920608
-0.14559174 0.056592252 -0.18648738 -0.11037997 -0.16405389 -0.20318808 -0.14171743 0.009859899

backbone.convs.0.conv.lin.parametrizations.weight.0.v f4 [500]
00000000: 18e4 0d3d 0f12 f83c 1ee4 963a db5a 05bd
00000010: 2c39 efbc 7c8e 62bc 187f c1bb 5fc8 9039
00000020: f3cc a83c ad61 b13c bde5 0bbc ac82 4fbb
00000030: 1795 a8bd b0ae 05bd 212b 4cbc 5554 5f3c
00000040: 81f5 96bd ba22 3a3d b635 fc3c 1681 efbd
00000050: 4f0c ccbd db2c bcbc a95e 5b3d b099 b1bc
00000060: a5ca 423d 38ac 753d 0bdb 603d 3db1 7cbd
00000070: 51d8 423b 4291 19bc 26db 2a3d d00b e03c
00000080: dd52 703c a01c c9bb bb0a c63c 4e4a 2abd
00000090: d5ee c0bc 8c0c b3bd 62d8 2e3d f5f7 11bd
000000a0: 284e 0a3d 6eee 223c e98d 8ebd 6592 85bb
000000b0: bc28 a9bc 108d 343d 4cf8 2fbd bc2d b33c
000000c0: 6781 c83b 08f4 82bb 2588 4e3d 45ca cfbb
000000d0: 818c 083d 25a9 9c3c 0d31 4f3b 10d4 853c
000000e0: 11cf 44bd f415 373b 5bf2 833c 486b 82bd
000000f0: 8f06 633d cd75 bdbd d43b 003d a5ab 56bc
00000100: 3983 863c fe56 1ebd 50f8 6d39 47fa d6bc
00000110: adb1 a93c 708e 873d 982a 12bb 0a62 273d
00000120: 7c33 c9bd 4518 dabc 372e aebd 7377 043c
00000130: b541 1c3d 18bd 24bc d4c5 b2bd c883 5fbd
00000140: 7b97 523c a450 f73b 6ee9 b63c 50b6 bbbb
00000150: 7925 c73a 99d0 603c 6fd4 973b 21a3 fc3c
00000160: e042 113c 7489 2abd f35b 82bd 6af1 7b3b
00000170: e94c 7cbd ec40 a63c 6a9e 0abd 8302 a33c
00000180: 6331 c13d a25f 4bbd 16b9 49bd b792 043d
00000190: 7bbf 1b3d 22f8 d73c aa8f 283c 2680 0e3d
000001a0: a6bb 26bc 9d03 19bd 19ac dcbc f409 50bc
000001b0: f0ac 0dbd 65df b33b 1eef 173c 3ac3 12bc
000001c0: 409e 8bbc 632e 27bd 524e a8bd e105 abbd
000001d0: 3270 013e 2936 b7bc c02b 1dbd d54b 203d
000001e0: e176 f73c 75ff 90bd 6d11 f13c 7c20 673d
000001f0: 13e5 563c 4f7c 7cbd 7652 7abb 2db4 3abb
00000200: c429 863c 999f 343d 6078 02be 47ec edbc
00000210: e8c6 a2bd f03c 44bb 8f53 75bd 5c87 41bc
00000220: c9f9 c1bc bb86 9d3d 99e9 b73c 50b8 ef3c
00000230: 54cf 4bbc dbce fe3b 7b7a 313c 2831 a8bd
00000240: 830e 5c3c d3df f6bd 8330 803d a73d 9fbd
00000250: c8ce 68bd a915 68bc e051 6bbd d8a9 15bc
00000260: 9fed 37bd 7b06 883d 52b1 34bd b65f 333d
00000270: a60b 743d 3413 27bc d1c4 803c 753a 413d
00000280: 7e11 803c 0bcd c8bc 1756 6a3d e4ca 46bd
00000290: 57c8 0f3d b0ef 693c 8ff6 77bd 731b 953b
000002a0: acfb 183c 3d62 d43c cf8d cb3c b49f 983d
000002b0: 578a 5cbc 59e6 84bc 1322 1d3c 2b24 74bc
000002c0: f13e 463b 4534 543d c9b8 05bd 8932 8fbc
000002d0: 0161 6d3a a4c3 e9bc ae10 babc 5ad1 343b
000002e0: 9398 fc3c f802 b1bc 3c12 de39 263a 65bc
000002f0: 4cf4 0fbc c680 e6bb 6c92 4ebb b864 f53b
00000300: b1bc cf3c 0a50 b03d d5a3 1cbc df8a f1bd
00000310: ab61 b5bc 0194 96bd 7340 813d f848 90bc
00000320: 39b9 debb 6d4e 203d a0d4 9e3d bde2 0abd
00000330: 86c2 863d 7672 21bd 341a 473d 53e0 523d
00000340: 8fae 6ebd ba37 013d 246d ddbc 4b89 24bc
00000350: 73a1 d83d 7298 3e3d ce33 f4bc 9571 bbbc
00000360: f5c9 61bd f4b2 90bc 97d1 213d ca17 dabc
00000370: a48e 753c 8994 c03c d976 f33a e357 70bc
00000380: 872c 633d 3cc3 9fbd f873 b6bb ccb2 40bd
00000390: d68e dc3c 1109 33bc 3b30 a2bd 52eb 70bd
000003a0: c3dd 893b 3e8e 9c3c 9f4d cbbc 9106 3e3d
000003b0: 36e1 1f3d 1620 2d3d c385 98ba db27 473b
000003c0: 932a 9139 a198 0dbc 567e 7b3b 03b3 163c
000003d0: 7533 17bd e6f8 9cbd 18c8 4ebc 8bdc 4ebd
000003e0: 136d 8c3d 0b71 a23d 3dc5 4f3a 95de d3bd
000003f0: b8d2 6e3c 4311 873d 4360 02bd b2d6 353c
0.034641355 0.030282049 0.0011512076 -0.03255735 -0.029202066 -0.013827916 -0.0059050433 0.00027615108
0.02060554 0.02165302 -0.008538661 -0.003166358 -0.08231562 -0.032637298 -0.012461455 0.013630946
-0.07371045 0.045443274 0.03078733 -0.11694543 -0.09963285 -0.022970608 0.05355707 -0.02167973
0.047556538 0.059978694 0.054896396 -0.061692465 0.0029730985 -0.009373011 0.041712902 0.027349383
0.014668194 -0.0061374456 0.024175039 -0.04157477 -0.023551384 -0.087426275 0.042686827 -0.03563686
0.03376594 0.009944541 -0.06960661 -0.0040762895 -0.020649306 0.04407984 -0.042961404 0.021872394
0.0061189416 -0.003996376 0.050422806 -0.006341251 0.03333712 0.019123623 0.003161493 0.01633647
-0.048049036 0.002793667 0.016106775 -0.063681185 0.055426177 -0.09250984 0.031307057 -0.013102447
0.016419994 -0.03865718 0.00022694585 -0.026242388 0.020714605 0.06618965 -0.002230322 0.04086498
-0.09824273 -0.0266229 -0.085049085 0.00808512 0.0381486 -0.010054849 -0.08729139 -0.054569036
0.012853499 0.007547455 0.022328105 -0.0057285205 0.0015193663 0.013721609 0.0046334784 0.030839505
0.008866042 -0.04163499 -0.06365194 0.0038443455 -0.061596785 0.020294629 -0.03384248 0.019898659
0.09433248 -0.04965175 -0.049248777 0.03236648 0.038024407 0.026363436 0.010288158 0.03479018
-0.010176575 -0.03735696 -0.026937531 -0.0126976855 -0.034588754 0.005489277 0.009273319 -0.008957678
-0.017043233 -0.040815722 -0.082180634 -0.08350731 0.12640455 -0.022364693 -0.0383718 0.03913482
0.030208053 -0.070799746 0.029427255 0.056427464 0.013116139 -0.061641987 -0.0038196123 -0.002848874
0.016377337 0.044097517 -0.12741232 -0.02904333 -0.079480946 -0.0029943548 -0.05989414 -0.011812057
-0.023678677 0.076917134 0.022450255 0.029262692 -0.012439568 0.007776124 0.010832424 -0.08212501
0.013431194 -0.1205441 0.06259253 -0.07775431 -0.056837827 -0.01416532 -0.05745113 -0.009134732
-0.044904348 0.06641861 -0.04411442 0.04379245 0.05958142 -0.0101974495 0.01571885 0.04717489
0.01563334 -0.024511835 0.057211008 -0.048533335 0.03510317 0.014278337 -0.06053787 0.0045503913
0.009337347 0.02592575 0.024847893 0.07452336 -0.013460717 -0.01622312 0.009590643 -0.014901201
0.0030249918 0.05180766 -0.032646928 -0.017480152 0.0009055287 -0.028535672 -0.022713032 0.0027590604
0.030834472 -0.02160786 0.00042356725 -0.013990914 -0.008786272 -0.007034394 -0.003152038 0.0074888133
0.02535853 0.08609016 -0.009560545 -0.11794066 -0.022141298 -0.07352448 0.06311121 -0.01761292
-0.0067969826 0.039137293 0.07755399 -0.03390764 0.06580071 -0.0394158 0.048608974 0.051483463
-0.05827194 0.031547286 -0.027029581 -0.010042499 0.10577669 0.046532102 -0.029809859 -0.022881309
-0.05512424 -0.017663456 0.03950652 -0.026622672 0.014987621 0.023508327 0.0018574848 -0.014669391
0.055462386 -0.0780091 -0.005568024 -0.047045514 0.026923578 -0.010927455 -0.079193555 -0.05881817
0.0042073443 0.019110795 -0.024817286 0.04639298 0.039033137 0.042266928 -0.0011636544 0.0030388746
0.00027688275 -0.008642347 0.0038374863 0.009197953 -0.036914308 -0.07664661 -0.012620948 -0.050503295
0.06856742 0.079317175 0.0007925814 -0.103451885 0.014576606 0.06595089 -0.031830084 0.011098551

backbone.convs.1.conv.bias f4 [3]
00000000: ac93 063b 1f33 7bbb c2a1 8b3b
0.0020534797 -0.003833003 0.0042612264

backbone.convs.1.conv.lin.weight f4 [3, 64]
00000000: 7e4b 8e3f 002e 82be e261 34bf d3d3 eabf
00000010: 42ad e4be e624 5b3f 419c 413f 00e4 85be
00000020: 39ef a93f 9e70 ab3f 4974 2a3d 312e 163f
00000030: fac5 983e 6a95 b2bd 866b e3bc 4b3f c6be
00000040: 54aa d13f dc70 b53f 9e70 28bf 7073 b2bf
00000050: 5a39 a93f 1e86 9fbf 77fd 80bf 0ad5 e6bf
00000060: 74e8 f53f 6ce4 0040 a860 bebf 0848 f73f
00000070: 1804 02c0 d456 e4bf 540d 043f 1ba2 183d
00000080: f90d 0ebf a07c ccbf a2a6 f73e 8143 343f
00000090: 3350 aebe 3ade fcbe 301e 66bf c2fb 6abf
000000a0: cacd 4bbf 1f87 963e 8855 3ebf 394d 9dbf
000000b0: 6a75 f83f 1130 aebf 300f e3bc a6ca 853f
000000c0: f9fe 05c0 7a2e ed3f 7668 c4bf 542e b6bf
000000d0: 75b3 bdbf 1afd f03f c3d6 b1bf cc71 ab3f
000000e0: e2e8 48be c2d4 7c3f 950c dfbf 9df7 c0bf
000000f0: 9c42 043f 05d8 823f 80a3 123e 31b6 97bf
00000100: 46aa 95bf e6a1 bebf 2a77 ea3f d095 3a3e
00000110: 7e08 78bf 8665 77bf 6ef5 a8bf 069f dabf
00000120: fecd 6a3f b81c de3e 032b b9bf 32a0 94bd
00000130: 0418 d1bf 1c23 ca3f 76a6 513f aa15 f3bf
00000140: 7e03 85be 46a2 e73f 253f 00c0 7232 cf3f
00000150: b325 ef3f e359 a93f 58b5 153f 94d4 edbd
00000160: 4a64 33bf 2c8f 833e e431 3fbf 5bbc ec3e
00000170: 4a87 d93f ae9f 2dbf e4e2 54bf 029a e23f
00000180: ce21 093f 143d d93e 519e 173f eeb9 51bf
00000190: bebb 9fbf 2ac6 263f 7614 8abe 1a6e af3d
000001a0: 080a c53f 273a a93f dbca 65bf a9a9 b13e
000001b0: 36b0 253f 320f f1bf 110e d6bf 2abf c4bf
000001c0: 91c1 28bf 8e0c b7bf 72f5 323f 289c c23d
000001d0: ceea bf3f 90b9 323f 6e24 8c3c 1af4 cfbf
000001e0: 536f d9be 0a7e b23c 4102 8bbf b2c6 b33f
000001f0: 5a6d 0cbf 2ce0 abbf 6e7c 9f3f daac eabd
00000200: bae5 393f 56f9 dabf 1c2c e6bf f464 773f
00000210: 240f e73f feb0 00c0 3ce3 dabf 62eb 013f
00000220: 3228 463c 867f 3d3e b45b 433f 8a03 0e3f
00000230: f254 cfbf 8eb0 653e 8a3d 99be 76e7 d3bf
00000240: 2142 823f 267e af3f 6191 c7bf e082 8f3e
00000250: 417c 2fbf 63a4 86bf feb5 863f d1fc e03f
00000260: f8c0 b23e 6b75 753e 9200 c2bf 4c3b f3bf
00000270: 1bb1 17bf 9a36 09be fa3d eebf f565 82bf
00000280: 7629 b5bf 9ee3 be3f 3cfb 8a3f aee7 ecbf
00000290: cfb8 bd3e ad81 9d3f deb7 afbf 93cd e83f
000002a0: b6ce aa3f 44cb babf d6e0 bbbe e61d 453d
000002b0: 04b7 b43f 1ce4 963f 4fa4 5a3f c676 8a3e
000002c0: 7759 d03f 42c2 0f3f 0f36 e7bf 9dcb 83bf
000002d0: 595d e4bf 2286 01c0 2458 f13d 70de bc3f
000002e0: 0e55 f03f e6a4 00bf 0ce8 b6be de9f e6bf
000002f0: 85e7 753e 8f42 dc3d d82d db3e 3e47 78bf
1.1116788 -0.2542572 -0.7046186 -1.8345894 -0.44663435 0.8560318 0.7562905 -0.26150513
1.327613 1.3393743 0.041614804 0.5866423 0.29838544 -0.08719905 -0.027761232 -0.38720164
1.6380105 1.4175067 -0.6579684 -1.3941479 1.3220627 -1.2462804 -1.0077351 -1.8033764
1.9211564 2.0139418 -1.4873247 1.9318857 -2.0314999 -1.7838998 0.5158284 0.03726397
-0.5549007 -1.5975533 0.48369318 0.704155 -0.34045562 -0.49388295 -0.8988981 -0.917904
-0.79610884 0.29399964 -0.7434926 -1.2289191 1.9410832 -1.3608419 -0.027717203 1.0452468
-2.0936873 1.8529809 -1.5344379 -1.4232888 -1.4820391 1.882724 -1.3893665 1.3394103
-0.19620088 0.9876214 -1.7425715 -1.5075566 0.5166414 1.0222174 0.14320183 -1.1852475
-1.1692588 -1.4893157 1.8317616 0.18221211 -0.9688796 -0.9663929 -1.3199899 -1.707978
0.9172057 0.43381286 -1.4466251 -0.07257117 -1.6335454 1.5791965 0.81894624 -1.8990986
-0.25979227 1.8096397 -2.003854 1.618727 1.868338 1.3230556 0.58479834 -0.11612812
-0.70074904 0.2569517 -0.746855 0.46237454 1.6994412 -0.67821777 -0.8315871 1.770325
0.53567207 0.4242941 0.59225947 -0.8192433 -1.2479169 0.65146124 -0.26968735 0.08565922
1.5393686 1.3220872 -0.8976266 0.34699753 0.64722 -1.8832762 -1.6723043 -1.5370839
-0.6592036 -1.4300706 0.6990577 0.09502441 1.4993532 0.69814396 0.017107215 -1.6246369
-0.42467746 0.021788616 -1.0860063 1.4045012 -0.5485436 -1.3427787 1.2459848 -0.1145875
0.7261616 -1.7107341 -1.7982211 0.9663842 1.8051496 -2.0108027 -1.7100596 0.5074979
0.012094544 0.18505678 0.763118 0.5547415 -1.6197798 0.22430632 -0.29929763 -1.6555011
1.0176431 1.3710372 -1.5591241 0.28029537 -0.6854897 -1.0518917 1.052429 1.7577153
0.34912848 0.23970573 -1.5156424 -1.9002471 -0.59254616 -0.13399735 -1.8612664 -1.0187365
-1.4153278 1.4913213 1.0857921 -1.8508203 0.3705506 1.2305199 -1.3727987 1.8187736
1.3344333 -1.4593282 -0.36694974 0.048124216 1.4118352 1.1788363 0.85406965 0.27043742
1.6277303 0.5615579 -1.8063372 -1.0296513 -1.7840987 -2.0238118 0.117843896 1.4755383
1.8775957 -0.50251615 -0.35723913 -1.8017538 0.24014099 0.107548825 0.42808414 -0.96983707

backbone.convs.1.conv.lin.parametrizations.weight.original f4 [3, 64]
00000000: 67b6 2a3e 832d 1cbd 0968 d8bd c2dc 8cbe
00000010: 3f2c 89bd 6374 033e b246 e83d 3da1 20bd
00000020: 38df 4b3e 96ad 4d3e dc7e cc3b 412c b43d
00000030: 9a48 373d 9b3f 56bc 406b 88bb cdd6 6dbd
00000040: 9789 7b3e 20ad 593e 3414 cabd d816 56be
00000050: 0805 4b3e df61 3fbe 29c0 1abe 3c77 8abe
00000060: 5282 933e 1da2 9a3e d265 64be 3855 943e
00000070: 3dfb 9bbe 67f8 88be 916c 9e3d 911d b73b
00000080: 996c aabd 2153 75be f78d 943d 9743 d83d
00000090: 1220 51bd 21af 97bd 8d09 0abe b6f4 0cbe
000000a0: 6281 f4bd f196 343d 7a58 e4bd 5db7 3cbe
000000b0: 010a 953e 84f9 50be dd33 88bb d382 203e
000000c0: 99c1 a0be 4346 8e3e efa1 6bbe 7090 5abe
000000d0: 0896 63be e58e 903e e15a 55be ffae 4d3e
000000e0: 8208 f1bc 72a9 173e 0dcc 85be 2d81 67be
000000f0: 7eac 9e3d 7df9 1c3e 7dec af3c 8a02 36be
00000100: fe8d 33be 18b4 64be 2da5 8c3e 17d9 df3c
00000110: abc8 14be e966 14be 8ab3 4abe 1424 83be
00000120: 42d9 0c3e 2b3c 853d d625 5ebe c64e 32bc
00000130: 10da 7abe 7e81 723e f384 fb3d c1d0 91be
00000140: e493 1fbd 58f2 8a3e d5db 99be 8593 783e
00000150: 1f74 8f3e 102c 4b3e 469b b33d e6a9 8ebc
00000160: cc37 d7bd 37d5 1d3d d660 e5bd ce01 8e3d
00000170: 487c 823e 4c4c d0bd d466 ffbd 93ed 873e
00000180: c384 a43d c34f 823d e6e5 b53d 509c fbbd
00000190: 34a2 3fbe 9614 c83d e0a7 25bd 1277 523c
000001a0: c663 6c3e fe05 4b3e 90d7 09be c624 553d
000001b0: 1fc7 c63d c099 90be e066 80be f409 6cbe
000001c0: 5275 cabd 0c9b 5bbe d2b2 d63d b479 693c
000001d0: b03e 663e fb6a d63d 4921 283b da7b 79be
000001e0: e86d 82bd 9023 563b 29c5 26be dbad 573e
000001f0: c578 a8bd 6b33 4ebe 3f56 3f3e 61c5 8cbc
00000200: d605 df3d 415a 83be e711 8abe 9166 143e
00000210: 179a 8a3e 6a64 9abe ff4c 83be 97dd 9b3d
00000220: 16bb ed3a ba57 e33c 825f ea3d 1460 aa3d
00000230: e7bc 78be cac7 093d 0bd8 37bd 2f39 7ebe
00000240: aa45 1c3e 528a 523e 686c 6fbe f92b 2c3d
00000250: 0c88 d2bd 0b88 21be 2b9d 213e b8f5 863e
00000260: dc73 563d 513d 133d 0cbf 68be 54e7 91be
00000270: 70fc b5bd b69d a4bc 1fe9 8ebe a570 1cbe
00000280: 7957 59be ef02 653e bebc 263e cb1b 8ebe
00000290: 749c 633d 4bf6 3c3e 90cf 52be e2a5 8b3e
000002a0: 57eb 4c3e 3919 60be 3966 61bd 9d7b ec3b
000002b0: 2dce 583e 8006 353e 4027 033e d31d 263d
000002c0: 75f5 793e 0378 ac3d 6fb1 8abe ba1d 1ebe
000002d0: 50fc 88be 1f64 9bbe 81c5 903c 7996 623e
000002e0: 172a 903e e855 9abd 3f6f 5bbd 5757 8abe
000002f0: c381 133d bd1f 843c c079 833d 4fee 14be
0.16671143 -0.03812934 -0.10566718 -0.27512175 -0.066978924 0.12837367 0.11341609 -0.03921627
0.1990937 0.20085749 0.0062407088 0.08797503 0.044746973 -0.013076688 -0.004163176 -0.058066178
0.24564205 0.21257448 -0.09867135 -0.20907152 0.19826138 -0.18689679 -0.15112366 -0.27044094
0.28810364 0.30201808 -0.22304466 0.28971267 -0.30465117 -0.26752016 0.07735551 0.0055882414
-0.083214946 -0.23957492 0.0725364 0.10559767 -0.051055975 -0.0740645 -0.13480206 -0.13765225
-0.1193874 0.04408926 -0.11149688 -0.18429323 0.29109195 -0.20407683 -0.004156573 0.15674905
-0.31397703 0.2778798 -0.23010992 -0.21344161 -0.22225201 0.2823402 -0.20835449 0.20086287
-0.029423002 0.14810732 -0.2613224 -0.2260787 0.07747744 0.15329547 0.021475071 -0.17774406
-0.17534634 -0.22334325 0.2746977 0.027325196 -0.14529674 -0.14492382 -0.19795051 -0.25613463
0.13754752 0.06505617 -0.21694121 -0.010883039 -0.24497247 0.2368221 0.122812174 -0.2847958
-0.0389594 0.2713802 -0.3005053 0.24275024 0.2801828 0.19841027 0.087698504 -0.017414998
-0.10508689 0.038533416 -0.112001106 0.06933938 0.25485444 -0.101708025 -0.12470785 0.26548442
0.08033135 0.063628696 0.0888174 -0.122856736 -0.1871422 0.097695515 -0.0404433 0.012845771
0.23084936 0.19826505 -0.13461137 0.052037023 0.09705948 -0.28242302 -0.25078487 -0.23050672
-0.09885658 -0.21445864 0.10483326 0.014250208 0.22484851 0.10469624 0.0025654605 -0.24363652
-0.06368619 0.0032675005 -0.16286148 0.21062414 -0.0822616 -0.20136802 0.18685244 -0.017183961
0.10889785 -0.25654796 -0.26966783 0.14492251 0.27070686 -0.30154735 -0.2564468 0.07610624
0.0018137421 0.027751792 0.11443998 0.08319107 -0.2429081 0.0336378 -0.04488377 -0.24826501
0.1526095 0.20560578 -0.23381197 0.042034123 -0.10279855 -0.15774553 0.15782611 0.26359344
0.052356586 0.035947148 -0.22729129 -0.28496802 -0.08886039 -0.020094734 -0.27912232 -0.15277345
-0.21224774 0.223644 0.16282937 -0.2775558 0.055569127 0.18453328 -0.20586991 0.27274996
0.2001165 -0.21884622 -0.055029128 0.0072168843 0.211724 0.17678261 0.12807941 0.040555786
0.2441004 0.08421328 -0.27088496 -0.15441027 -0.26755 -0.30349824 0.017672302 0.22127713
0.28157112 -0.075359166 -0.05357289 -0.2701976 0.036012422 0.016128415 0.06419706 -0.14544033

backbone.convs.1.conv.lin.parametrizations.weight.0.u f4 [3]
00000000: 3ba9 16bf 29e5 e73e ed71 2bbf
-0.58851975 0.45292023 -0.6697071

backbone.convs.1.conv.lin.parametrizations.weight.0.v f4 [64]
00000000: c205 2bbe 0546 7e3d b8bc 7a3e 51f4 523d
00000010: 28d0 0dbe f0f3 253d 8d9a 273c 2584 c4bd
00000020: 4a31 19bd 4493 92bd 3fde f3bd 6786 99bd
00000030: 24b2 8a3c dd74 7c3d 81b8 703d fe25 433d
00000040: f48c 34be ab09 bfbd 318c 563d d2de 0b3e
00000050: 96f3 573d e49a 503e 1cdf 7a3c 07fa 89bc
00000060: 4f38 2cbe e2c7 fbbd 20ef 1e3e b857 0d3d
00000070: 99e1 713e d27a aa3d 58f3 673d 23b9 153e
00000080: 5758 1b3e fee9 5a3c fa48 98bd 3afa 393d
00000090: f315 7bbd 6b45 c3bc bbce 073e 53e0 82bd
000000a0: 99de de3c 60ad 0f3e e3b7 e23c deb4 ad3d
000000b0: 1cc8 37be 555a acbd bb75 06be 62d3 18be
000000c0: ed32 80bc 3181 58be c5c4 783e d1ca 203e
000000d0: f399 8c3e ead3 663d f0e1 983d f1a0 80be
000000e0: 4ca2 08be e65e c0bc b24a 9e3d acc6 8b3e
000000f0: bc16 92bd 6f41 03be 4967 9e3c 909f 043e
-0.16701415 0.062078495 0.24486053 0.05150253 -0.13848937 0.04051584 0.010229719 -0.09595517
-0.03740052 -0.07156995 -0.119076245 -0.07496338 0.016930647 0.061634887 0.058769707 0.047643654
-0.17631894 -0.09328016 0.05237979 0.13659218 0.052722536 0.20371586 0.0153119825 -0.016842855
-0.16818355 -0.12293984 0.15520906 0.034507483 0.23621215 0.08324207 0.056628555 0.14621405
0.15170418 0.013361452 -0.07435794 0.04540465 -0.06130023 -0.023836812 0.13262455 -0.06390443
0.027205752 0.14030981 0.027675575 0.08481763 -0.1794743 -0.08415667 -0.13130848 -0.14924386
-0.015649283 -0.21143033 0.24293812 0.15702368 0.27461204 0.05635444 0.07464969 -0.2512279
-0.13343161 -0.023482751 0.07729091 0.27300012 -0.071332425 -0.1281793 0.01933636 0.12951493

exp_avg f4 [64]
00000000: 213c 47bb e1a0 94bb 52ce 2fbc e4ee 9f3b
00000010: f365 ef3a e8cd 40bc e19c b0bb 4864 6dbc
00000020: 0052 773a 478d 82ba 353f 66bc 7474 3bbb
00000030: adff 10bb 416e 193b f127 f83a d37d dcb9
00000040: 389b 0bbb c267 0dba 2b22 33bb 2f8e d1b9
00000050: cb92 8cbb 4268 b8bb a76c e2ba 35cb 1ebc
00000060: 8b71 62bc 0ba3 9bbb 20d3 fc3a 0ad2 753b
00000070: f9f5 04bc 8c6c b3bb d1fd 863b 0228 cfbb
00000080: 2252 403b fd65 3f3b d8a6 9dbb afa1 8cba
00000090: 5c7e febb b5c3 f0bb bba4 10bb be62 48bc
000000a0: f474 28bc e34c 6b3b fbff baba ffec c5bb
000000b0: 471b 92bb 2127 9bbc 0b89 05bc b4b2 23bc
000000c0: 47d6 84bc 9f6b efbb 2fb2 b93b beea 60bb
000000d0: 1827 f6bb ab61 2cbc c560 a2bb ceaf 51bc
000000e0: f34f 413a 6d0e 88bb 9740 71bb a469 463c
000000f0: 87b5 e5bb 0aea 37bc 6190 913b 4f98 bbb8
-0.003040083 -0.00453578 -0.010730343 0.004880773 0.0018264636 -0.011767842 -0.005389795 -0.014489241
0.0009434521 -0.0009960317 -0.014053156 -0.0028603347 -0.002212505 0.0023411664 0.0018932802 -0.00042055416
-0.0021302234 -0.0005394184 -0.0027333598 -0.00039969521 -0.00428996 -0.005627663 -0.0017274813 -0.009692003
-0.013821016 -0.004749661 0.0019288994 0.0037509226 -0.008115285 -0.0054755863 0.0041196127 -0.006321908
0.002934583 0.0029205077 -0.004811149 -0.0010729338 -0.007766528 -0.007347549 -0.0022070843 -0.012230573
-0.01028179 0.0035903982 -0.0014266962 -0.006040215 -0.004458818 -0.018939557 -0.008150349 -0.009991337
-0.016215457 -0.0073065306 0.005666993 -0.0034319605 -0.0075119846 -0.010521333 -0.0049553835 -0.012798263
0.0007374279 -0.0041521103 -0.003681218 0.012110148 -0.007010165 -0.011225233 0.00444226 -8.9452245e-05

exp_avg_sq f4 [64]
00000000: b912 f737 e2e0 7436 bc0b 053a cd16 9937
00000010: 8210 1339 473d 0b38 4b2c 9936 ec2b c238
00000020: 5439 7f37 69fa dd35 f41b f038 e0de c136
00000030: 9cd4 0037 cba3 4638 26b1 4438 3770 2b36
00000040: 9b67 4837 5a88 9536 f3c8 cb36 43ef 3938
00000050: 5afa 3538 cb92 2c39 85b0 5836 3dd2 ce36
00000060: 218e 9738 b428 e336 fdaf e637 706e 0139
00000070: 9733 3439 8665 5f36 5411 4638 dd39 0e39
00000080: 4fb0 ab38 7709 ce37 ff8f bc35 d94b 1638
00000090: bcc2 0738 ccb7 4737 9f11 1138 1e82 fb37
000000a0: 0340 1b38 b46d e137 d729 6b35 2b5b 6537
000000b0: 10d7 8037 73c1 6139 37f4 5038 c2ce 0238
000000c0: f86a c638 1686 ce38 fc32 5139 e83e 2c38
000000d0: 89b6 8139 6d26 7238 e42b 8036 ec20 b438
000000e0: 4cb5 bb36 a6b5 af36 a7ec 8935 1c73 ae39
000000f0: a4d7 9a37 8c62 5138 cb66 ad37 e054 2b37
2.9453413e-05 3.6489732e-06 0.0005075296 1.8249639e-05 0.00014025162 3.319725e-05 4.5649117e-06 9.258822e-05
1.5212532e-05 1.6538662e-06 0.000114492985 5.7777943e-06 7.6788965e-06 4.7359423e-05 4.6895024e-05 2.5546303e-06
1.19450515e-05 4.4564194e-06 6.073265e-06 4.4330267e-05 4.338692e-05 0.00016457883 3.2289256e-06 6.1637534e-06
7.226715e-05 6.7698656e-06 2.7500088e-05 0.0001234354 0.00017185356 3.3288684e-06 4.7223017e-05 0.00013563731
8.1867554e-05 2.4561521e-05 1.4049e-06 3.5833425e-05 3.236787e-05 1.1904118e-05 3.4587105e-05 2.9982122e-05
3.7014495e-05 2.6873175e-05 8.7605207e-07 1.367069e-05 1.5358935e-05 0.00021529738 4.9818507e-05 3.1186974e-05
9.4613e-05 9.847821e-05 0.00019950786 4.106658e-05 0.00024740797 5.7733083e-05 3.819807e-06 8.589201e-05
5.59414e-06 5.236553e-06 1.027617e-06 0.0003327363 1.8458646e-05 4.9921262e-05 2.0671074e-05 1.0212156e-05

exp_avg f4 [64, 500]
00000000: 33dd 11bc 63c4 8239 0495 143a 8057 7f38
00000010: e935 9aba ec1d 2dbb c584 6939 bebf e2b9
00000020: 703b 22bb 5c8b edb9 1366 0838 27c0 87ba
00000030: 70bd dc38 a055 2bba 5799 06ba 6536 c3ba
00000040: 1752 3b3b 1d02 d2b9 e58b 9eba 6a48 03ba
00000050: ea7e 4e3a fc2c 92ba 8489 e139 9813 0eba
00000060: b94f d3ba d404 52bb 04c9 ba39 f6f2 c939
00000070: c944 dfb9 ae84 6f37 7400 b138 8ab1 41ba
00000080: 9bf0 68bb cd49 c2ba e6f3 a3b9 8ac7 6eba
00000090: bd12 0539 531f 25b9 fa49 0fbb 9178 20bb
000000a0: 2490 2aba 92bf 3839 ee81 363a 4df1 50ba
000000b0: c60d 913a db1b 4fba bdd7 6d38 4115 08ba
000000c0: 58fd 1bba 9438 ef3a 9c84 49ba 3eb8 04b9
000000d0: 0f5f ceba ff9b b0b8 4c8f 8cba b5a7 fc39
000000e0: 7fc5 4a39 97c7 0a3a ce4d 2e3b ec73 8aba
000000f0: 542f d5ba 3466 eeb9 6fcd e3ba f001 0e3a
00000100: ddb8 5ab9 81d7 90b9 7dde 50ba 987d 14ba
00000110: 7f91 023a 5d9e 183b 6c4b e33a ed36 8aba
00000120: ec5f 96b9 a1d4 5c3a 307c 99ba f04a 03ba
00000130: 12a8 66ba d4ad 07ba 7fb1 e439 f2bc fbb8
00000140: 8529 8538 6924 13ba 5442 27b9 f29b f739
00000150: 5e8e 99ba fba6 a73a d34b b0ba bc92 213a
00000160: b49b 21b9 d09e 513a 6973 5b3a f59e b5ba
00000170: 9555 eab9 6d3d 57ba 602e 0eb9 1627 4a39
00000180: 9385 7e3a 48dd 38ba 93a0 23ba f79b 0bb9
00000190: 52bf 1639 a288 203b 7a88 f139 ef53 763a
000001a0: 5eda ff39 3ed4 8bb9 f1f0 b5b9 06ac beba
000001b0: df9b 23bb 87f1 93b8 4837 d7ba ce35 86b9
000001c0: 1aeb 58b9 d197 2cb9 7796 cbb9 45ae 9638
000001d0: 2bb3 a739 c3dc ccb9 0661 873a a05b 98b9
000001e0: c4d8 c03a 8cb9 0dba 79c3 3839 a3b4 8d3b
000001f0: f833 83b9 6b22 ec39 ec7e 4439 2cbc 42b9
00000200: 97af c939 4fc0 163a 7d9f 193a f438 a33a
00000210: da3b 0f3a dd1b b93a 869b 713a 1dd5 0e3a
00000220: 5f0c 2038 ca15 d03a beb4 79ba 7917 f539
00000230: d5a8 e2b9 4646 4cb9 a029 4f3a 3e4e fa39
00000240: e673 2a3b 944b 8d39 e94f 54b9 067b 8eb9
00000250: 23e8 af3a b606 4b3b 2a85 82b9 82da 44b8
00000260: 2d25 66b9 ce8a 1bba 9332 62ba 79a9 2139
00000270: 909b 1eba b708 c5b9 9b8d 243a 44a5 1cbb
00000280: 061b 613b 1540 3039 5094 873b 9d6d 5c39
00000290: 2da4 4aba 6cd1 63b8 a1be 2bb8 d4fd 1539
000002a0: f882 c9b7 6ebb c138 2ffc ea38 effd e13a
000002b0: 22e2 48b9 b0f0 58ba b507 c738 97b3 82b9
000002c0: 833b 733a f912 85ba 1b11 84b7 b2f3 89ba
000002d0: 76fd 9739 59b0 dcb8 7ab0 383a a5dc 1bbb
000002e0: 7690 d9ba 4e03 a8b9 32ff 8eb9 5814 ff38
000002f0: d236 b7b9 7b8d 68b9 047e 8239 8df2 6bb9
00000300: 3381 e0b9 5842 25ba 3d0d 04b9 8c45 8838
00000310: cd62 17bb cfab 4838 1a61 60ba 0aed 6639
00000320: 81ca 0fba ba51 a83a 8150 94ba b634 7b3a
00000330: c35d deb9 86eb 273a 2b7f 053a f46a 0039
00000340: b829 23ba b0d8 4b3a 5c82 9c3a d072 8239
00000350: d036 e03a 0ef1 873a 29b4 6fb9 cb05 1439
00000360: 1510 0b39 e0f6 ac3a fd1b 0f3b 2256 7c3a
00000370: d953 0fba e48d 973a f76f 80b8 500d 843a
00000380: a720 303b 0cac 8039 e8ad 083b 055d 48ba
00000390: 9970 e737 6877 8039 9d48 c239 7ff7 0d3b
000003a0: 6a6d dab8 8b0b 2eb9 f343 153a af58 483b
000003b0: 0191 34bb c349 8739 34e5 7cba 92ec 6f3a
000003c0: 4504 d0b9 72a4 64b8 2663 fc38 8a36 9c39
000003d0: b796 433a 9f6c 8438 1991 f93a 34c2 683a
000003e0: f4cf 1c3a 54d3 f438 16e4 5039 35b5 803b
000003f0: 9a02 acb9 8406 d33a 9fce 2638 60cd b63a
-0.008902836 0.00024941852 0.0005667957 6.087823e-05 -0.0011765334 -0.002641554 0.00022270072 -0.00043248938
-0.0024754666 -0.00045307993 3.251999e-05 -0.0010356948 0.00010525703 -0.00065358914 -0.0005134544 -0.001489353
0.0028582865 -0.00040055896 -0.0012096135 -0.0005008044 0.0007877188 -0.0011152322 0.000430178 -0.000541979
-0.0016121782 -0.0032046335 0.00035626453 0.00038518728 -0.00042585123 1.4276402e-05 8.440102e-05 -0.0007388821
-0.0035543803 -0.001482302 -0.000312715 -0.0009108713 0.00012690849 -0.00015747295 -0.0021864162 -0.0024485926
-0.0006506464 0.00017618973 0.000696211 -0.0007970527 0.0011066727 -0.0007900574 5.6706125e-05 -0.00051911554
-0.0005950532 0.0018251115 -0.0007687302 -0.00012657137 -0.0015744882 -8.4213905e-05 -0.0010723858 0.00048190137
0.00019337794 0.00052940234 0.0026596668 -0.0010563112 -0.0016264715 -0.00045471045 -0.001737995 0.0005417159
-0.00020858967 -0.00027626383 -0.00079677236 -0.0005664467 0.0004980787 0.0023287751 0.0017341203 -0.0010544934
-0.00028681697 0.0008424018 -0.0011709984 -0.000500842 -0.0008798848 -0.0005175744 0.00043619794 -0.000120038065
6.349668e-05 -0.00056130305 -0.0001595107 0.000472277 -0.0011715402 0.0012790853 -0.0013450332 0.0006163528
-0.0001541216 0.0007996382 0.00083713845 -0.0013856577 -0.00044695722 -0.0008210752 -0.00013559451 0.00019278782
0.0009709235 -0.00070520164 -0.0006241884 -0.00013314174 0.00014376387 0.0024495502 0.00046068785 0.00093966624
0.00048800086 -0.0002667028 -0.00034702526 -0.0014547117 -0.0024964733 -7.054494e-05 -0.0016419673 -0.0002559856
-0.00020686947 -0.00016459754 -0.00038831282 7.1850176e-05 0.00031986213 -0.00039074392 0.0010328598 -0.00029059965
0.0014713039 -0.0005406372 0.00017620427 0.004324512 -0.00025024987 0.0004503907 0.00018739299 -0.00018571381
0.00038468532 0.0005750702 0.00058602524 0.0012452886 0.00054639357 0.0014122684 0.0009216595 0.00054486265
3.8158494e-05 0.0015875634 -0.0009525529 0.0004674753 -0.0004323187 -0.00019481135 0.0007902626 0.0004774201
0.0026009022 0.00026949926 -0.00020247664 -0.0002717601 0.0013420623 0.0030979342 -0.00024894747 -4.6933543e-05
-0.00021948358 -0.0005933464 -0.0008628752 0.0001541729 -0.00060504023 -0.0003758126 0.00062772044 -0.0023902217
0.0034348383 0.0001680854 0.0041375533 0.00021021669 -0.00077301526 -5.4316057e-05 -4.0947114e-05 0.00014304306
-2.4022054e-05 9.237869e-05 0.00011204962 0.0017241816 -0.00019157727 -0.00082756113 9.490495e-05 -0.00024929337
0.00092785823 -0.0010152749 -1.5743592e-05 -0.0010524897 0.00028989807 -0.00010523265 0.000704534 -0.0023782637
-0.0016598839 -0.0003204592 -0.00027274486 0.00012163137 -0.00034945324 -0.0002217795 0.0002488942 -0.00022501704
-0.0004282087 -0.00063041365 -0.00012593433 6.4979395e-05 -0.0023099661 4.7843725e-05 -0.0008559391 0.00022022813
-0.00054851925 0.0012841739 -0.0011315496 0.00095827447 -0.00042412998 0.000640564 0.0005092497 0.00012246874
-0.0006224173 0.00077761244 0.0011940706 0.00024881074 0.0017106179 0.0010371523 -0.00022859931 0.00014116538
0.00013262064 0.0013196133 0.002183675 0.0009625872 -0.00054675114 0.0011562672 -6.124371e-05 0.0010074768
0.002687493 0.00024542247 0.002085561 -0.00076432555 2.7589778e-05 0.00024503027 0.00037056665 0.0021662412
-0.0001041543 -0.00016598233 0.0005694024 0.0030570438 -0.002755225 0.00025804163 -0.0009647191 0.0009152378
-0.00039676033 -5.4512588e-05 0.00012034764 0.00029795273 0.0007461118 6.314483e-05 0.0019040435 0.0008879036
0.0005981915 0.000116741896 0.00019921394 0.0039278516 -0.00032808335 0.0016099964 3.9769915e-05 0.0013946705

exp_avg_sq f4 [64, 500]
00000000: 9915 0038 8153 2034 4fd9 0635 235d a134
00000010: d0d8 9a34 54bd cb35 7ff5 8333 f7d1 c134
00000020: 34a4 5136 6f83 8734 03c1 1335 57c8 1a35
00000030: 9f7f 3834 e696 1b35 8f1a 7134 92f9 1e36
00000040: c595 ce36 ba9b 0634 5396 d334 dc9c c233
00000050: b747 0a35 6971 1235 905d 0e35 b90f 7334
00000060: b173 9235 b0f4 8136 b3f6 7c34 713a c434
00000070: f991 b933 c40c 4a35 6b82 f833 0e76 9533
00000080: ae4e 8c36 130d 4435 9918 8d33 06a7 6934
00000090: 038a e034 6b47 6134 59d8 df35 1dd9 1836
000000a0: 3625 aa33 d661 1a35 793f c134 ba92 0334
000000b0: 3a41 3d35 5077 8234 c1f1 0e34 53a0 f233
000000c0: 7c74 9634 f15a 8a36 a6ab 8234 472d c633
000000d0: 9638 2536 19b8 9d35 2ad5 8234 325f c134
000000e0: d98f cc34 baa7 5f35 f73a 1636 0ba5 1935
000000f0: 84d6 ef34 658a 4f34 7fe6 8c35 30d7 be34
00000100: a639 e733 e9ee 8833 1b50 8434 668e c335
00000110: d8bd d634 f2f7 3836 e78d 6936 cef3 5935
00000120: 8c73 e234 f7c5 5035 32f6 cf34 6558 9934
00000130: 907c 5334 d771 1d34 111c ff34 fb47 c733
00000140: 6d30 1a35 573e 4b34 9dbc db33 2dcc 8635
00000150: 87fc 0035 449a c935 3e42 8034 3029 f134
00000160: d01d 4833 e432 ba36 407c 4435 e6e9 3335
00000170: 894d 7133 476b ab34 80d5 c033 b10a cc34
00000180: bc17 0935 b7c3 2534 a0b9 6034 966b b332
00000190: ed1d 2b34 8a99 1e36 6022 0935 40e9 d534
000001a0: 79a4 bb34 05e7 4133 4f94 c634 2db0 2235
000001b0: 6998 df35 9ee9 9734 cf05 e834 a5e1 3934
000001c0: dc2e 8634 1b1d 0333 5aaa b433 88f1 4134
000001d0: 168d 0034 48d7 bc33 980a d534 20ea 9733
000001e0: 57be 6e35 2d5d a234 89bd a235 0a4a 1c37
000001f0: 8660 0b33 a83b ea33 717a e333 0a8f b432
00000200: 8a7e 6934 ecce 8334 78aa ef34 33e5 e635
00000210: 4dc3 1135 7a44 3735 f567 e534 7887 0034
00000220: a971 8a34 db87 af35 2308 c234 9f36 da35
00000230: 094f 6a33 2283 3033 d5b6 fb34 b66a 4134
00000240: b9dd 5136 450e a734 1adf 9134 6d31 fe34
00000250: 9284 8935 6ce3 2337 6f30 bd32 1bae 9233
00000260: c90b 6533 5d84 2e34 af0b 5e34 7e8a fb34
00000270: 1c1f fc33 294f 8a33 68f7 3934 5bbd 1936
00000280: 9fd6 a536 26a9 9c33 2f7b 1337 4217 3134
00000290: 108b 5a34 f0dd f433 da2f 2d35 41bf a733
000002a0: 1e54 0d33 6e66 8834 80f2 6f34 b5af 2835
000002b0: 3b27 a333 dc4e 3534 3fa1 fd33 1da3 c334
000002c0: 2755 0835 fb72 b734 3b01 5233 6fb5 f434
000002d0: 1ea5 0335 7074 2433 a3c1 b334 a8ea 2136
000002e0: c1ff b035 2647 3a34 d09c 1d34 33e4 a233
000002f0: df53 9433 2ea1 c234 36f7 a834 9b83 0c35
00000300: 22cb 1a34 c365 3934 bba4 1534 d16f dc33
00000310: d14a c135 e0c3 ac33 e785 4e34 356b 3f34
00000320: 5207 2734 a768 3436 1ea3 8235 5279 5e35
00000330: 09df 9f34 6a80 1e35 d133 b434 da05 df33
00000340: ca8d 2533 13a1 b834 671f 8f35 4615 5534
00000350: 7d75 7535 8b3e 0835 0c72 7f34 5973 ae33
00000360: 0aab 7834 8f5f 8c35 9947 0336 9d2a 9e35
00000370: 3afb c633 74ec 2e35 65c9 ec34 8263 1f35
00000380: 1877 8736 b8ae 9434 e51e 5a36 f64f 2534
00000390: c05b 9333 4208 9233 17a8 b833 8d70 6936
000003a0: 96af 7135 7d41 f831 04c5 0136 8c11 8f36
000003b0: 387e 0736 d288 4234 a0a5 1234 e8c7 4235
000003c0: df37 4735 1484 8b32 638a 1e33 4f1b 3035
000003d0: 5a80 ba35 ecb2 ae33 6b94 c235 ef20 0c36
000003e0: 292e 0d35 39de cc33 fa64 4334 6039 0837
000003f0: f6a6 7a33 c1cb a335 5e87 2033 ce38 4835
3.0537693e-05 1.493154e-07 5.0235116e-07 3.0056353e-07 2.8842487e-07 1.517978e-06 6.144818e-08 3.610182e-07
3.1239006e-06 2.524134e-07 5.5042636e-07 5.7661003e-07 1.7182764e-07 5.7961586e-07 2.2454536e-07 2.3689104e-06
6.156714e-06 1.2536375e-07 3.9411188e-07 9.0623615e-08 5.1513365e-07 5.455427e-07 5.3035274e-07 2.2636858e-07
1.0911518e-06 3.872985e-06 2.3559078e-07 3.6550367e-07 8.641286e-08 7.526944e-07 1.1572123e-07 6.959827e-08
4.1814847e-06 7.3034715e-07 6.5702984e-08 2.1760579e-07 4.1823668e-07 2.098074e-07 1.667776e-06 2.2776142e-06
7.9230105e-08 5.751184e-07 3.5995234e-07 1.2253705e-07 7.0502904e-07 2.4301198e-07 1.331273e-07 1.1298166e-07
2.802443e-07 4.1233075e-06 2.4339278e-07 9.2283294e-08 2.4619853e-06 1.1750991e-06 2.4369484e-07 3.6018315e-07
3.8102624e-07 8.331805e-07 2.2386064e-06 5.723711e-07 4.46733e-07 1.9328725e-07 1.0497896e-06 3.5546827e-07
1.0767262e-07 6.376451e-08 2.46452e-07 1.4570076e-06 3.9998736e-07 2.756246e-06 3.4802304e-06 8.119358e-07
4.2179852e-07 7.7774115e-07 3.8735885e-07 2.8562786e-07 1.9696222e-07 1.4663179e-07 4.7517872e-07 9.279753e-08
5.743994e-07 1.8928527e-07 1.0232291e-07 1.0043201e-06 4.805119e-07 1.5020564e-06 2.3890055e-07 4.4919716e-07
4.6593243e-08 5.5491564e-06 7.31965e-07 6.7023063e-07 5.6182703e-08 3.1929287e-07 8.979532e-08 3.800574e-07
5.1071015e-07 1.5438023e-07 2.0929156e-07 2.0887267e-08 1.5936503e-07 2.3633206e-06 5.10865e-07 3.9844053e-07
3.4951134e-07 4.5146425e-08 3.6988283e-07 6.060607e-07 1.6659152e-06 2.829592e-07 4.3217594e-07 1.7311557e-07
2.499354e-07 3.0527286e-08 8.41289e-08 1.8062394e-07 1.1972256e-07 8.7935916e-08 3.968205e-07 7.0740725e-08
8.893889e-07 3.0242646e-07 1.2125103e-06 9.315563e-06 3.2451247e-08 1.09073255e-07 1.0592783e-07 2.1019805e-08
2.174585e-07 2.4551207e-07 4.464125e-07 1.7203041e-06 5.430091e-07 6.827246e-07 4.2730213e-07 1.1970212e-07
2.5787202e-07 1.3078055e-06 3.6141236e-07 1.6258163e-06 5.4554253e-08 4.1097458e-08 4.688542e-07 1.8013347e-07
3.1272486e-06 3.1116556e-07 2.7170682e-07 4.734715e-07 1.0245878e-06 9.768508e-06 2.202452e-08 6.8303244e-08
5.3328936e-08 1.6253166e-07 2.0679612e-07 4.685316e-07 1.1740323e-07 6.440525e-08 1.7319473e-07 2.2908996e-06
4.9423684e-06 7.295084e-08 8.790564e-06 1.6492871e-07 2.0353423e-07 1.14025056e-07 6.4517155e-07 7.8113324e-08
3.2905625e-08 2.5406501e-07 2.234683e-07 6.2840564e-07 7.597415e-08 1.6885627e-07 1.1810561e-07 3.644026e-07
5.078786e-07 3.4170066e-07 4.8895554e-08 4.5580552e-07 4.904158e-07 3.8290125e-08 3.3482237e-07 2.4127457e-06
1.3187456e-06 1.7348484e-07 1.4678812e-07 7.585222e-08 6.907043e-08 3.625259e-07 3.1472308e-07 5.2345575e-07
1.4416267e-07 1.7266488e-07 1.3936635e-07 1.02648876e-07 1.4401395e-06 8.0450036e-08 1.9233958e-07 1.7827263e-07
1.555575e-07 2.6883006e-06 9.733228e-07 8.287799e-07 2.9778337e-07 5.9046454e-07 3.3565314e-07 1.0385311e-07
3.8546013e-08 3.4389868e-07 1.066347e-06 1.984491e-07 9.144058e-07 5.075496e-07 2.3790216e-07 8.123488e-08
2.3159023e-07 1.0458624e-06 1.9562196e-06 1.178432e-06 9.265791e-08 6.5164136e-07 4.410496e-07 5.937692e-07
4.037178e-06 2.7694273e-07 3.2502514e-06 1.5395912e-07 6.86191e-08 6.800157e-08 8.598743e-08 3.4785219e-06
9.003501e-07 7.225195e-09 1.9337176e-06 4.263775e-06 2.0190037e-06 1.8117433e-07 1.3657564e-07 7.2561534e-07
7.421458e-07 1.6241792e-08 3.6913104e-08 6.560485e-07 1.3895435e-06 8.135052e-08 1.4497322e-06 2.0880796e-06
5.2593765e-07 9.539912e-08 1.8197525e-07 8.11959e-06 5.835951e-08 1.2203747e-06 3.737602e-08 7.458847e-07

exp_avg f4 [3]
00000000: 83ad 013a 7d69 663b 1057 83bb
0.0004946815 0.003515809 -0.0040081814

exp_avg_sq f4 [3]
00000000: f01e b036 67fc b138 634f 6f38
5.2488103e-06 8.487031e-05 5.7055975e-05
