~/epoch=157-step=157.ckpt (torch, 392059 bytes, 12 tensors)

backbone.convs.0.conv.bias f4 [64]
000000 7b 22 c0 3d 4a a8 b6 3d 45 a8 cd 3d f6 68 f1 3d
       0.09381577 0.08918817 0.100418605 0.11787598
000010 9f 80 c5 3d 32 bc 8d 3d c0 23 f1 3d 42 91 c8 3d
       0.09643673 0.06920661 0.11774397 0.09793331
000020 ab c2 c8 3d cd 0f c0 3d 97 5d be 3d 02 c7 af 3d
       0.09802755 0.09378014 0.092951946 0.085828796
000030 51 54 f2 3d fa a7 c0 3d 5b 8a e0 3d a6 21 d0 3d
       0.11832488 0.09407039 0.10963889 0.10162668
000040 26 04 c3 3d ef 3e b5 3d fd 37 e0 3d 50 6e 77 3d
       0.095222756 0.08849894 0.10948179 0.060407937
000050 ec 4b d5 3d 68 39 a7 3d fb 71 dd 3d a5 6f dc 3d
       0.104148716 0.08165246 0.10812756 0.10763482
000060 fa 3e 0a 3e 4a df e4 3d b6 c4 c5 3d a1 48 df 3d
       0.13500586 0.111754015 0.0965666 0.10902525
000070 98 c1 b0 3d 6a 8e e5 3d 95 f5 b6 3d 5c c3 cd 3d
       0.08630675 0.11208804 0.0893356 0.100470275
000080 0c 1f e3 3d 9e 10 df 3d 98 9f ce 3d 30 df b6 3d
       0.11089906 0.10891841 0.10089034 0.089292884
000090 2a 26 d8 3d a0 01 df 3d 92 d6 e6 3d b9 1b c6 3d
       0.10554154 0.10888982 0.11271395 0.096732564
0000a0 f8 3b ae 3d 42 ad e9 3d 03 1f d4 3d 8f 14 d2 3d
       0.08507532 0.114099994 0.103574775 0.102578275
0000b0 d2 21 7a 3d f8 ac c4 3d 65 35 b0 3d 9c b5 f3 3d
       0.06106741 0.09603304 0.08603934 0.118998736
0000c0 f8 4f ae 3d 7c 86 cf 3d 16 de ea 3d 2d 2c e1 3d
       0.085113466 0.10133073 0.11468141 0.10994754
0000d0 a0 69 d7 3d c7 2d d4 3d 9d f4 f5 3d 4c 03 d6 3d
       0.10518193 0.10360294 0.12009547 0.104498476
0000e0 f4 ca d3 3d 7c b5 e3 3d be 86 c8 3d cc 98 5c 3d
       0.103414446 0.111186 0.09791325 0.053856656
0000f0 e5 e2 d1 3d 57 f7 d6 3d 01 63 da 3d 0f 12 a4 3d
       0.10248355 0.10496395 0.10663415 0.08011257

backbone.convs.0.conv.lin.weight f4 [64, 500]
000000 60 58 83 bd 26 f8 29 3c bb 78 b2 3c 91 85 8c 3b
       -0.064133406 0.010374105 0.021786084 0.0042883833
000010 0e 15 ba 3c 9b 15 15 3d 90 ea 13 3d e4 7e 13 3d
       0.022715118 0.036397558 0.036112368 0.036009684
000020 16 44 99 bd f9 65 90 bd 0f 22 07 3d 19 a2 67 3c
       -0.074836895 -0.070507 0.032991465 0.014137768
000030 db 59 21 bd ab 33 0c 3e 36 34 7b 3d a8 03 d1 bc
       -0.039392333 0.13691585 0.06132909 -0.025514439
000040 2e c3 6c 3c f0 eb 28 bd f0 8a 1f bc 51 02 26 3d
       0.014450831 -0.041240633 -0.009737715 0.040529553
000050 03 79 c9 3d 15 5a 0b be 4f 4c 90 3c 1b 38 32 be
       0.09837534 -0.13608582 0.017614512 -0.17404215
000060 f3 9b 8e bd 2e 99 35 bd 47 f5 18 bc a9 7a 8e 3d
       -0.06963339 -0.044335537 -0.009335822 0.06956989
000070 cd b3 a2 bb 32 22 8d bc cc 22 8c 3d 9d f4 1e be
       -0.0049652816 -0.01722822 0.068425745 -0.15523
000080 64 6b a5 bc 69 33 c8 bd 54 a8 5c bd ce 4a 0c be
       -0.02019281 -0.09775431 -0.053871468 -0.1370041
000090 eb af c5 3d 7f af 3c 3d f8 61 d6 bd 01 46 cb 3c
       0.09652694 0.046065804 -0.10467905 0.024813654
0000a0 02 26 91 bd 92 6d 01 3d f8 a1 77 3d de 33 65 bd
       -0.070873275 0.031598635 0.0604572 -0.055957668
0000b0 14 1b dc 3d c0 62 c1 3d 96 b1 de 3d 90 18 a9 bc
       0.10747352 0.09442663 0.108737156 -0.020641595
0000c0 ae 9f c0 3d 9f 88 a0 3d cd a1 03 be aa c0 39 3e
       0.094054565 0.078385584 -0.12854691 0.18139902
0000d0 0f 24 e4 bd 90 67 04 3e 7d a2 09 be ab 68 32 3d
       -0.1113969 0.12930131 -0.1344089 0.04355685
0000e0 f4 e5 60 3a ba 35 42 bd bd 53 e2 3d 41 02 ce 3c
       0.00085791876 -0.04741452 0.11051128 0.02514756
0000f0 6d 7f 3d be 40 37 ae 3d 27 21 c5 bc 24 2b 63 bb
       -0.1850564 0.08506632 -0.02406366 -0.0034663165
000100 aa 33 98 3d b7 a5 13 bc c0 00 36 be 7d 20 c8 3d
       0.07431729 -0.0090116775 -0.17773724 0.09771822
000110 2f f1 c2 3d 15 34 bc 3b 9f 6f 83 3b 4a c1 3b 3d
       0.09518658 0.0057435133 0.004011109 0.04583863
000120 b8 c9 99 3c f1 1d b2 3d 43 8a a6 3d f5 44 20 3e
       0.018772945 0.08697117 0.0813184 0.15651305
000130 25 38 95 3d ed 5f b2 bd ac 1b c3 3c 7e 49 fe 3c
       0.07286099 -0.08709703 0.023816906 0.031040903
000140 30 ea d2 3d 63 dc 3a 3e 5d 1a 2f 3d 49 f6 b3 3d
       0.10298574 0.18248133 0.04274975 0.087872095
000150 66 b5 03 3e f9 41 0f 3b dc 8f f8 3d d6 7f 15 3c
       0.12862167 0.002185939 0.12136814 0.009124717
000160 9e 60 0c 3d 4d f2 34 3e b7 88 c2 3d a7 59 0c 3d
       0.03427183 0.17670555 0.094987325 0.034265187
000170 91 cf ab bd be 33 bf 3d b9 a4 a1 3d 0f 9c b3 bd
       -0.083891995 0.09336041 0.078927465 -0.0877
000180 eb c8 b5 bd f7 43 70 3d 55 e6 1c 3d 58 94 65 bd
       -0.08876213 0.058658566 0.0383056 -0.056049675
000190 a3 08 b2 bc 32 c3 17 bd f6 e8 88 bc 61 78 7d 3d
       -0.021732634 -0.037051387 -0.016712647 0.06188238
0001a0 2a 29 17 3e c2 f9 cb 3d f8 f1 a5 3d 6f 0d e8 bd
       0.14761797 0.09959747 0.081027925 -0.11330687
0001b0 08 f0 e0 3d 37 08 ba 3d 98 99 ce 3d 26 c9 34 3c
       0.10983282 0.09083598 0.100878894 0.011034286
0001c0 60 5b 62 3b ea 32 da 3d 8d 0f a7 3c a5 2d d0 3c
       0.0034539327 0.10654242 0.020393157 0.02541239
0001d0 83 97 d4 bd 27 a7 fd bc a1 0e 80 3d b6 b9 05 be
       -0.10380461 -0.030963494 0.0625279 -0.13059124
0001e0 5d 43 b8 3d 4d 47 85 3b c4 70 93 3d d1 c7 61 3d
       0.089972235 0.0040673376 0.07199243 0.0551222
0001f0 eb 05 8c bd 50 fe ba 3d a1 95 a1 3d 8b 84 3c 3d
       -0.06837066 0.091305375 0.078898676 0.04602484
000200 29 5e 63 3d 1d 49 09 bd e3 f0 1f 3d 6f 27 0d 3d
       0.05550972 -0.033516992 0.039048087 0.034461435
000210 55 e1 17 3d 3f 99 94 3d 2e d1 bd 3c 94 ac 08 3e
       0.037080128 0.07255792 0.023171034 0.13347083
000220 aa f1 e2 3d 3b 89 23 3c 95 2d 3f bc a3 38 bf 3d
       0.1108125 0.009981449 -0.011668582 0.093369745
000230 24 56 ec bc 6f 77 95 3d f6 bc 54 3c 61 8a 85 3d
       -0.028849669 0.07298171 0.012984505 0.06520534
000240 df 6e 0e bd 98 a5 cf bb 74 50 c8 3d 88 f9 4a 3d
       -0.034773704 -0.006336879 0.0978097 0.049554378
000250 ea 7c f4 3d 38 d9 2c 3e a8 bc 23 3d dc 82 97 3c
       0.11937888 0.16879737 0.03997484 0.018495016
000260 c3 35 b9 3d 26 dc 7f 3d c3 87 08 3e 79 ab 0b 3e
       0.09043457 0.06246581 0.13333039 0.1363963
000270 35 0d cb bd 79 89 02 bd 8b e1 3a 3c 67 84 56 bd
       -0.099146284 -0.031869385 0.011406313 -0.052372362
000280 5a 02 ec 3d dd e7 d1 3c a8 82 e5 3d 7e a8 56 3a
       0.11523886 0.025623256 0.11206561 0.00081885594
000290 72 7a a2 3c 7a 29 94 3c 82 18 02 3e 3d 8b fe bd
       0.019833777 0.018086184 0.12704661 -0.12428901
0002a0 3d e3 08 3d bb 5a a6 bc 48 b7 26 3e 85 ff 49 bd
       0.033419836 -0.020306936 0.16280854 -0.049315948
0002b0 a9 19 ba 3d 06 62 0a be 06 4f e9 3d 92 0c 91 bb
       0.090869255 -0.13513955 0.11392026 -0.0044265473
0002c0 f7 a1 ef bc 32 79 cd bd f6 d9 04 be 09 bb 1f 3d
       -0.029252036 -0.10032882 -0.1297377 0.03899673
0002d0 50 72 0f 3e e9 e7 42 bd 50 11 ee 3c 12 b5 12 be
       0.1400845 -0.047584448 0.02906099 -0.14326885
0002e0 1b 3e 2f be f5 55 29 bc 85 80 ca 3d 3d 76 83 bd
       -0.17113535 -0.010335435 0.098877944 -0.064190365
0002f0 e2 f6 ae 38 12 ca 35 3e 97 e7 1a 3e 91 e6 01 3e
       8.342952e-05 0.17752865 0.15127407 0.1268561
000300 66 33 e1 bc c5 ce eb bd ff c2 ee 3b 3a 47 0a 3e
       -0.027490329 -0.115140475 0.007286429 0.13503733
000310 2c fc 9d 3c ef 47 f7 3d cc 2b 08 be e6 a8 a1 3d
       0.019285284 0.12074267 -0.13297957 0.07893543
000320 6f 73 71 bd 12 8b 25 3e 71 95 12 bd eb a0 a3 3d
       -0.058947977 0.16166332 -0.03578705 0.07989677
000330 99 0a 23 bb bf 23 9e 3d 7f 85 0a 3e c3 2b 83 3d
       -0.0024878143 0.07721662 0.13527487 0.06404831
000340 7a 37 6b 3d 3e 65 1c 3d 4c a6 2e 3e 00 40 45 35
       0.057425953 0.03818249 0.17055625 7.348135e-07
000350 60 9a 13 3d 48 1d b6 bb de cd 2f 3e 86 44 0d 3e
       0.036035895 -0.00555769 0.17168376 0.13795671
000360 f7 37 fc 3d 5f 72 a5 3c af c3 59 3d fb 44 96 3d
       0.12315362 0.020196138 0.053165134 0.07337376
000370 32 d6 67 bc bc 83 20 3d 87 2a db 3d 4a 11 b4 3d
       -0.014150189 0.03918813 0.10701471 0.0879236
000380 e1 a2 13 3d aa ac 89 3d 9d 33 9e 3b a4 ed 4b bc
       0.036044005 0.06722386 0.00482793 -0.012446795
000390 25 81 04 3c cb 60 3f 3d d1 a8 58 3d e4 a9 2c 3e
       0.008087431 0.04672317 0.05289537 0.16861683
0003a0 f6 54 87 3c 99 f4 b6 3d 47 81 53 3d 9a 79 c0 bc
       0.016520005 0.08933372 0.05163696 -0.023495484
0003b0 b2 c0 1f 3e 08 ee d8 bc 49 b2 28 3b f6 14 89 3d
       0.15600851 -0.02648069 0.0025741032 0.06693451
0003c0 75 3b b7 3d ef a7 ca bc ad 01 33 bb fd 68 2d 3e
       0.089468874 -0.02473828 -0.0027314231 0.16934581
0003d0 f1 a2 2c 3e af da 32 3c df 15 bf 3d 74 5a 18 3e
       0.16859032 0.010916396 0.093303435 0.14878255
0003e0 e1 d4 32 bd 94 4e 96 bd dc 7d ff 3d bd 0b 9c 3d
       -0.04366005 -0.07339206 0.12475178 0.076194264
0003f0 60 14 df bd 54 74 2c 3b 7c 3a 5c 3d 2c b5 d4 3d
       -0.10892558 0.0026314454 0.053766713 0.10386118

backbone.convs.1.conv.bias f4 [3]
000000 6c 67 41 3d de 16 46 bd 4e 0b 56 bc
       0.04721777 -0.04836165 -0.013064219

backbone.convs.1.conv.lin.weight f4 [3, 64]
000000 6c 90 df be e6 1f d0 3e 42 34 d7 3e 86 25 2d be
       -0.43664873 0.40649337 0.42032057 -0.16908845
000010 b2 b7 96 3e a8 da 96 be 90 60 a6 bd c3 9d e3 be
       0.29437023 -0.29463696 -0.081238866 -0.444563
000020 86 fc dd bd 3b b2 be 3e b3 9a c4 3e 45 31 79 be
       -0.10839181 0.37245354 0.38399276 -0.24335201
000030 62 3f 82 be d1 95 3c 3e a5 98 88 3e 6a e4 3b be
       -0.25438982 0.18416525 0.2667896 -0.18348852
000040 0d 79 e0 3e 27 0e 81 be 3a 43 c0 be 6a 99 8d be
       0.43842354 -0.2520611 -0.3755129 -0.27656108
000050 49 68 a6 bc 05 0b c8 3e 13 3f 3e 3e c3 24 c6 3e
       -0.020313399 0.39070907 0.18578748 0.38699922
000060 cd 5e 16 3e a5 c9 a7 be df 2a dd 3e b2 5c 9f 3e
       0.14684601 -0.3277103 0.4319677 0.31125408
000070 35 2f 86 be 6f 83 1f 3d 6b 1c a3 be 33 28 d4 3e
       -0.2620789 0.038943704 -0.3185762 0.4143692
000080 e3 46 81 bd 9a 55 c4 3e 15 16 cf 3e d3 f8 73 be
       -0.06312349 0.3834656 0.40446535 -0.23825388
000090 a3 33 b3 3e cd 7f c0 3d 70 94 f0 3d 4c a1 9c be
       0.35000333 0.09399376 0.11747062 -0.3059181
0000a0 48 e1 2d 3e a8 d4 f3 bd 4d d4 7d be 0d a3 c2 be
       0.16980469 -0.11905795 -0.24788018 -0.38015023
0000b0 b9 f3 c5 be 75 80 d6 be 7e 8b c2 be 2c c5 b6 be
       -0.38662508 -0.4189488 -0.3799705 -0.35697305
0000c0 e9 47 94 3e 93 a2 bb 3e 35 9d cb 3e 1a 39 6c 3e
       0.28961113 0.36647472 0.39768377 0.23068658
0000d0 66 e3 82 be b8 28 9d 3e 74 b6 43 be b8 bf a8 be
       -0.25564116 0.30695128 -0.19112569 -0.3295877
0000e0 28 5c ad 3e a5 54 3f 3e 1d 63 c3 be 78 df ac 3e
       0.33859372 0.18684633 -0.38161555 0.33764243
0000f0 4c 38 b6 3e 8d 6c 8b be 65 95 bc be 64 d5 7a be
       0.35589826 -0.27231255 -0.3683273 -0.24495465
000100 bf 85 d1 3d 88 0a af 3e 54 03 13 be ad d2 2b be
       0.10230588 0.34187722 -0.14356738 -0.16779585
000110 65 05 c4 be 3b bc cb be 62 93 a7 3e d4 26 c8 be
       -0.38285366 -0.39792046 0.32729632 -0.39092124
000120 db ae cc 3e b8 84 a0 be 2f a3 23 be fb 74 85 3e
       0.39977154 -0.31351256 -0.15980218 0.26065812
000130 e8 02 30 3e 06 cb 86 be e6 d0 7d 3e 97 cf ac 3e
       0.17188609 -0.2632677 0.2478672 0.33752128
000140 bf 2b 9d be 21 7f cc 3e d0 d7 36 3e 06 b3 e1 3e
       -0.30697438 0.39940742 0.17855763 0.44081897
000150 6f c3 db bd ce c1 c1 be 54 90 48 be ca e7 d3 be
       -0.107306354 -0.37843174 -0.19586307 -0.4138778
000160 67 8d 47 be b0 c0 9b be 2e 7f e3 bd b4 27 05 be
       -0.19487534 -0.30420446 -0.11108242 -0.13003427
000170 e4 1d d8 3e c1 5f c1 be b6 65 df 3e e1 fa a4 bd
       0.42210305 -0.37768367 0.43632287 -0.08055664
000180 1b bb 6f bd 3e c9 d6 3e 8a 6d 6e be 66 38 d6 3e
       -0.058528047 0.4195041 -0.23283973 0.41839904
000190 29 b6 a0 be a3 e4 e7 3e bc 14 6a 3e a8 16 c3 3e
       -0.31388977 0.45291623 0.22859472 0.38103223
0001a0 95 bd a9 be f8 4a 42 be df 26 8f 3e 87 82 6b 3e
       -0.33152452 -0.18973911 0.27959344 0.22999011
0001b0 cb 17 e5 3d 8d 29 e3 be 20 39 af 3e 27 9b d9 be
       0.11186179 -0.44367638 0.3422327 -0.42501184
0001c0 bd 6a 88 be cb 42 d4 be 66 f8 69 3c 40 58 a6 3e
       -0.26643935 -0.4145721 0.014280414 0.32489204
0001d0 f1 93 5a 3e a2 04 9a be 58 4f 54 be 6d f4 3b 3d
       0.21345498 -0.3008166 -0.20733392 0.0458874
0001e0 3f fd 85 be d2 70 99 be 2d 7c 0a 3e a0 dc be 3e
       -0.26169774 -0.29968888 0.13523932 0.372777
0001f0 02 64 66 bd 51 81 50 3e 8c 4d 72 3e 4a a8 c7 3e
       -0.05624772 0.2036183 0.23662394 0.38995582
000200 a7 cb d5 3e 42 1b a5 be 62 6e 75 bd b1 46 91 3e
       0.41756937 -0.3224736 -0.059919722 0.28374246
000210 f9 c1 5c be 97 83 7e 3e 69 21 99 3e 82 97 c1 3e
       -0.2155837 0.24854885 0.29908302 0.37810904
000220 a1 48 26 be fd cd 3a be 88 00 b5 be a9 d0 d8 be
       -0.16238643 -0.18242641 -0.35351968 -0.42346695
000230 a6 d7 08 3e fc df ba be 3d c2 78 be ed e1 8b 3e
       0.13363513 -0.36499012 -0.24292846 0.27320805
000240 f5 5a 58 3e 44 b9 c2 be 92 1d 09 bd 1b ae c1 be
       0.21128447 -0.3803197 -0.033475466 -0.37828144
000250 ec f6 de 3e fc 27 70 be fd b1 86 be 71 a9 84 3e
       0.4354776 -0.23452753 -0.2630767 0.25910524
000260 1d d2 3c 3e ae 6d 99 3e 67 ac 87 be b5 90 a5 3e
       0.18439527 0.2996649 -0.2649872 0.32336965
000270 d6 c9 a3 be 8f ef bc be ad 6d 7b 3e a7 2d cf be
       -0.31989926 -0.3690152 0.24553557 -0.40464517
000280 84 7c b3 3e 66 45 d5 bd 6f 16 9c 3e fe c3 8f be
       0.35055935 -0.10413627 0.30485865 -0.28079218
000290 a3 ed d0 3e 41 6e a9 3d c7 d9 ba be 90 b6 a7 3e
       0.40806302 0.082729824 -0.36494276 0.32756472
0002a0 a7 24 c6 be a2 0b ae 3e 8a 6a d1 3e 92 84 8a 3e
       -0.3869984 0.3399325 0.40901595 0.27054268
0002b0 ed b2 b1 be 33 46 ae 3e d0 c0 cf be 99 db d0 3d
       -0.34706822 0.34037933 -0.40576792 0.10198135
0002c0 da 60 56 be 28 2e 82 3e 39 f5 b7 bc ca 5b 80 be
       -0.20935383 0.2542584 -0.022455798 -0.2507003
0002d0 a1 a0 a8 3e 63 0c d1 3e d8 9f 3d 3e 40 9c b8 be
       0.3293505 0.40829763 0.18518007 -0.3605671
0002e0 ea e7 da 3e 6f 0b 97 3e c6 7d 92 3d a6 52 c5 be
       0.4275506 0.2950091 0.07152896 -0.38539618
0002f0 04 94 0a bd b2 50 91 3e 60 1b 80 3e 1b 9d a1 be
       -0.033832565 0.28381878 0.25020885 -0.31565174

exp_avg f4 [64]
000000 3f 2a 43 bb d6 0d 35 bb 7d d8 d4 ba 0c 46 2f ba
       -0.002977982 -0.0027626655 -0.0016238835 -0.0006686158
000010 bf de 1a bb 66 ff e8 ba 31 86 89 ba 53 d5 25 bb
       -0.0023631302 -0.001777631 -0.0010492263 -0.0025304153
000020 bf 5e 18 ba 37 06 07 bb d6 34 1a bb 1a 19 40 ba
       -0.0005812458 -0.002060307 -0.0023530028 -0.0007327959
000030 be aa 5c ba cf aa fb ba 60 d3 cf ba 25 d6 cc ba
       -0.00084177766 -0.0019200685 -0.0015855841 -0.0015627785
000040 7f 62 4a bb d7 64 16 ba 37 60 9f ba 07 a3 c8 ba
       -0.0030881462 -0.0005737072 -0.0012159412 -0.0015307375
000050 61 1d 98 ba 2d aa 1a bb b4 9e bd ba c2 77 50 bb
       -0.0011605435 -0.0023599968 -0.0014466853 -0.0031809662
000060 74 e7 71 ba 2c c3 b0 ba 6a d7 19 bb 62 48 cd ba
       -0.00092279096 -0.00134859 -0.0023474344 -0.001566183
000070 a0 04 87 ba 2a c5 97 ba 63 60 26 bb c1 4b 45 bb
       -0.0010301061 -0.0011579145 -0.002538704 -0.0030104967
000080 b1 d8 3f ba ec c6 ac ba 7a 3c 26 bb c2 8d 5a ba
       -0.00073183613 -0.0013181842 -0.0025365637 -0.00083371636
000090 fe b2 1e bb 73 2a 8b b9 a0 43 73 ba 6e 93 f4 ba
       -0.0024215574 -0.00026543773 -0.0009279791 -0.001865966
0000a0 0b ab 05 bb 99 5c 83 ba b3 12 ef ba 5e c0 18 bb
       -0.002039614 -0.0010022103 -0.0018239826 -0.002330802
0000b0 ba 4a 68 ba 6a 45 1f bb 59 24 a7 ba a6 d8 98 ba
       -0.0008861233 -0.0024302849 -0.0012751921 -0.0011661246
0000c0 16 e6 ec ba fd 7c 5e bb 71 56 94 ba 7b a1 90 ba
       -0.0018073942 -0.003394901 -0.0011317265 -0.0011034453
0000d0 e0 68 e8 ba 83 af 27 bb f5 44 06 ba 0c 5e 44 b9
       -0.001773145 -0.002558679 -0.000512197 -0.00018727052
0000e0 0c 5f 25 bb f9 73 c1 ba a8 d9 a8 ba f6 90 37 bb
       -0.0025233654 -0.0014759294 -0.001288225 -0.0028009987
0000f0 2a a2 9f ba 89 2a b4 ba 6f 66 02 bb 7a 82 ad ba
       -0.0012179066 -0.0013745587 -0.001989748 -0.0013237738

exp_avg_sq f4 [64]
000000 fa 4c 1e 38 8c 6a 48 37 fe 13 98 36 b5 a1 c5 35
       3.7741826e-05 1.1945736e-05 4.5322804e-06 1.4724707e-06
000010 69 cf 80 37 c1 9f 97 36 01 25 bf 35 65 6c e2 37
       1.5355372e-05 4.5187485e-06 1.4241378e-06 2.6991775e-05
000020 e0 59 ad 35 5a 94 53 37 e2 dc 3d 37 31 9a 19 36
       1.2915662e-06 1.2611121e-05 1.1316706e-05 2.2888528e-06
000030 c6 9c 3d 35 4d c5 ca 36 30 ba 84 36 a2 68 b0 36
       7.063612e-07 6.043038e-06 3.9555816e-06 5.2573896e-06
000040 ba db 8a 37 2f 3d 8a 35 ec 9d 26 36 52 77 00 37
       1.65532e-05 1.0299608e-06 2.482785e-06 7.657176e-06
000050 db 3c 2a 36 ae e1 70 37 87 57 7f 36 9b e2 9f 37
       2.5367397e-06 1.435766e-05 3.8048909e-06 1.9059798e-05
000060 86 11 1b 35 25 ce cc 36 0b aa 7f 37 3c 5b 75 36
       5.77675e-07 6.103672e-06 1.5238776e-05 3.656095e-06
000070 90 e7 72 36 d2 a8 13 36 99 b2 8a 37 1f 94 ca 37
       3.6195597e-06 2.2002973e-06 1.6534048e-05 2.414925e-05
000080 0b 84 e9 35 ae 47 23 36 7b c0 76 37 35 b1 10 36
       1.7398282e-06 2.4330616e-06 1.4707558e-05 2.156082e-06
000090 10 04 5a 37 d9 7d 5d 34 fd 59 4a 35 fd b1 23 37
       1.2994758e-05 2.0628012e-07 7.5381814e-07 9.756998e-06
0000a0 2a db ac 36 7e 83 1c 36 d2 e0 30 37 99 3f 49 37
       5.1515135e-06 2.332235e-06 1.05427625e-05 1.1995341e-05
0000b0 46 83 df 35 43 f1 c0 37 fc ce c9 36 35 58 41 36
       1.6653e-06 2.300053e-05 6.014363e-06 2.8810584e-06
0000c0 ec ff d3 36 6c a7 d1 37 b4 a8 06 36 11 a4 79 35
       6.3180833e-06 2.4992703e-05 2.0065754e-06 9.2998476e-07
0000d0 6f d1 fd 36 1f 5b 6a 37 73 b6 ba 34 ce 96 26 34
       7.564369e-06 1.3968703e-05 3.477795e-07 1.5514817e-07
0000e0 ba 49 7d 37 2c 05 93 36 67 04 e1 35 8e 9d 5e 37
       1.5097141e-05 4.3815435e-06 1.6765088e-06 1.3268915e-05
0000f0 83 92 4e 36 69 11 c3 36 a3 bb 27 37 2e c0 97 36
       3.0781673e-06 5.8134797e-06 9.997663e-06 4.5225233e-06

exp_avg f4 [64, 500]
000000 e4 f0 a7 3a c8 21 d5 36 21 5c fd 37 9a 34 ad 37
       0.001281288 6.3518273e-06 3.0202851e-05 2.0647702e-05
000010 41 2f 07 b9 ba a9 18 ba bf 42 31 38 c0 94 a8 b8
       -0.00012892207 -0.0005823631 4.226225e-05 -8.038571e-05
000020 eb 20 11 39 a9 76 90 38 14 5a 8e b7 40 87 6b b6
       0.0001384054 6.888557e-05 -1.6969665e-05 -3.5096455e-06
000030 bf b6 27 36 0b 78 5b b8 38 70 41 38 9e 59 d7 38
       2.4991311e-06 -5.2325468e-05 4.6119298e-05 0.000102686914
000040 7d 25 74 37 f9 fa 6b b7 46 a9 ab b7 92 b4 2b b9
       1.4552262e-05 -1.4065526e-05 -2.0463613e-05 -0.00016375098
000050 bd 78 58 b8 1e 96 a8 38 4a da e1 b6 98 0b 19 39
       -5.161086e-05 8.038826e-05 -6.7309347e-06 0.00014595536
000060 f8 ca 17 39 73 72 9f 38 2f 5d b2 b4 63 80 2c 38
       0.00014476094 7.603029e-05 -3.3222884e-07 4.1127565e-05
000070 4a aa cf 37 77 4a 0c 38 8f 4f 04 38 e0 b9 31 b8
       2.475562e-05 3.3447952e-05 3.1545347e-05 -4.2373198e-05
000080 fd 25 49 39 bf 18 80 b8 0e af c0 37 4e 8e 13 37
       0.00019183005 -6.108125e-05 2.29697e-05 8.795016e-06
000090 67 12 c9 38 c8 58 71 b8 19 a8 50 b6 d6 46 77 b7
       9.5878546e-05 -5.754156e-05 -3.109226e-06 -1.473884e-05
0000a0 4b 96 cc 37 41 6c a4 b8 b3 25 3b 38 a8 99 3d 37
       2.438868e-05 -7.840293e-05 4.4619384e-05 1.1301054e-05
0000b0 f5 29 ac 38 fc 2e 5b 38 ba bf ea b5 f2 61 d3 37
       8.209414e-05 5.2257426e-05 -1.7490158e-06 2.519877e-05
0000c0 16 8f 86 38 cf 66 81 b9 f5 9c 47 b7 31 bc c4 36
       6.41627e-05 -0.00024681396 -1.1897869e-05 5.8631636e-06
0000d0 fa 40 25 39 a4 f9 cf 38 11 57 d7 b6 27 a4 ce b8
       0.00015759832 9.9170284e-05 -6.417635e-06 -9.853421e-05
0000e0 dc e0 57 38 9d a6 71 b7 fb ef 18 37 0a c8 f2 b8
       5.146941e-05 -1.4403512e-05 9.115781e-06 -0.000115767194
0000f0 ef 73 e1 37 e2 9f 0f b8 c0 c5 e0 37 03 15 1a b8
       2.6876076e-05 -3.424276e-05 2.6794965e-05 -3.673603e-05
000100 f1 72 ec b7 87 9e d1 36 5a a5 28 b8 77 8d 4c b8
       -2.8186916e-05 6.2471404e-06 -4.0208317e-05 -4.876914e-05
000110 3f 43 d8 38 d2 76 e6 b6 b1 f5 82 b9 bb fa 4b 38
       0.00010312208 -6.8683667e-06 -0.00024978587 4.8632483e-05
000120 31 77 31 b8 51 29 a4 37 60 3f 8d b8 40 a8 f0 37
       -4.2311094e-05 1.9569563e-05 -6.7352084e-05 2.8688577e-05
000130 e7 57 b8 38 99 b8 5c b7 82 22 d2 b7 55 dd 30 b8
       8.790177e-05 -1.3156002e-05 -2.505002e-05 -4.21678e-05
000140 5e 71 d5 37 60 b5 8f b8 7e a5 a3 37 7d 62 ad b8
       2.544437e-05 -6.852555e-05 1.9508178e-05 -8.267628e-05
000150 ce 4d 58 37 61 f8 85 36 e7 8b af b8 b2 c6 b5 b8
       1.2892719e-05 3.992624e-06 -8.370709e-05 -8.6677624e-05
000160 54 02 9f 37 ab 8a 7b b9 c1 3b 90 b7 ef e0 df b5
       1.8955361e-05 -0.00023988883 -1.7193963e-05 -1.6680259e-06
000170 be bd ae 37 74 2c db b8 f9 07 41 38 38 07 55 b8
       2.0830772e-05 -0.00010451014 4.602221e-05 -5.078988e-05
000180 1d 21 c8 38 79 3c 78 b7 74 9a 43 37 3d 06 55 37
       9.542911e-05 -1.4796032e-05 1.1658867e-05 1.2697242e-05
000190 92 30 53 38 37 fa c8 b6 4f b7 26 b5 a3 ca f9 37
       5.0351555e-05 -5.9895933e-06 -6.210657e-07 2.9777473e-05
0001a0 36 35 a8 37 c6 6b 36 38 49 55 27 36 7f a7 56 b8
       2.0051939e-05 4.3492553e-05 2.4934582e-06 -5.117757e-05
0001b0 a7 d4 97 b8 c4 b9 26 38 93 04 3f b9 d8 46 49 b9
       -7.239851e-05 3.9750492e-05 -0.00018216883 -0.00019195245
0001c0 9f ab 94 b8 6e 39 28 b8 1f 18 03 b9 c9 20 d8 b8
       -7.089157e-05 -4.0107807e-05 -0.0001250212 -0.00010305789
0001d0 c0 b2 c5 b7 51 82 87 b7 8d dd 9b b8 38 93 ab 38
       -2.3567467e-05 -1.6153937e-05 -7.432243e-05 8.181337e-05
0001e0 de 2b 5a 38 4e 2a 51 b9 a9 9c 0e b9 9b f9 ea b8
       5.2016105e-05 -0.00019947553 -0.00013600536 -0.00011204482
0001f0 6c 17 77 b7 6b 5a 56 38 bb 22 e9 37 6c 27 ae 37
       -1.4727801e-05 5.1105784e-05 2.7791937e-05 2.0760774e-05
000200 1b 5a 04 b8 28 a3 9e 36 27 65 95 b8 17 35 95 b7
       -3.155517e-05 4.727761e-06 -7.123715e-05 -1.7786906e-05
000210 6c 92 35 b8 b9 79 7f 38 4c 4b 10 b8 a6 e8 7b 38
       -4.329013e-05 6.09101e-05 -3.44024e-05 6.0059734e-05
000220 3c 02 83 37 8a b4 9e 37 99 84 b7 37 87 78 7e b9
       1.5617457e-05 1.8919138e-05 2.1877046e-05 -0.00024268228
000230 14 a4 ed 36 2e aa ef 37 92 ed 9b b7 ce 25 a1 37
       7.0822516e-06 2.8570266e-05 -1.8588067e-05 1.92103e-05
000240 23 39 ab 37 8d c6 df b6 17 6b e8 36 a5 47 09 b8
       2.0411395e-05 -6.6690322e-06 6.9266057e-06 -3.273007e-05
000250 87 b6 98 37 c1 e3 4a b9 44 9d b3 b8 06 bf 7b b6
       1.8204808e-05 -0.00019349066 -8.564678e-05 -3.7513105e-06
000260 07 b7 74 b7 d9 c7 97 37 70 75 7b 37 ed df 81 38
       -1.4586148e-05 1.8093664e-05 1.4988109e-05 6.192909e-05
000270 5e 8b ad b7 01 04 0b b8 78 54 15 b8 14 15 40 37
       -2.0688105e-05 -3.314391e-05 -3.5603036e-05 1.1448999e-05
000280 6d ff 78 37 87 cf a6 36 a1 ca 64 38 e8 54 7a b8
       1.4841423e-05 4.971345e-06 5.454815e-05 -5.968372e-05
000290 0c 7c 17 36 a5 04 14 37 96 dd c9 b8 e2 60 22 b8
       2.2572958e-06 8.822569e-06 -9.6257005e-05 -3.871404e-05
0002a0 18 da 33 b7 3c 99 82 b7 66 e2 63 37 5a d0 fc b4
       -1.072001e-05 -1.5568563e-05 1.3582967e-05 -4.7090253e-07
0002b0 42 07 95 37 9f 29 0c b6 a8 dd 4c 38 ed e6 5f b8
       1.7765564e-05 -2.0885852e-06 4.8843824e-05 -5.338241e-05
0002c0 e2 fc 95 b6 98 22 5f b7 e9 1a 39 b8 b7 09 a6 36
       -4.4699855e-06 -1.329989e-05 -4.41325e-05 4.9483165e-06
0002d0 94 a6 23 b9 52 36 53 b7 0d 12 8c 35 66 c9 33 b7
       -0.00015606947 -1.25892275e-05 1.0436066e-06 -1.0716123e-05
0002e0 17 b9 20 39 eb 57 d2 37 fe ea 83 37 e0 20 97 37
       0.0001532774 2.507489e-05 1.5725844e-05 1.8015911e-05
0002f0 8a 87 52 b7 94 d3 74 36 f7 5e 6c 38 28 37 e1 38
       -1.2548533e-05 3.6481988e-06 5.6355228e-05 0.0001073911
000300 32 a9 21 b7 a4 4d bd b6 fa 67 2c 37 02 51 b5 37
       -9.635742e-06 -5.6416775e-06 1.0276208e-05 2.1614604e-05
000310 fd ec 6b b9 94 6f 74 38 6c 19 c7 37 de 07 d2 37
       -0.00022499631 5.827805e-05 2.3734487e-05 2.5037614e-05
000320 c7 08 57 38 0c 0a 40 b8 f3 c4 18 38 99 53 08 38
       5.126817e-05 -4.5785724e-05 3.6423047e-05 3.2502783e-05
000330 db 29 97 b7 d4 a6 f9 b8 24 1d fe 36 41 bc ec b6
       -1.8020093e-05 -0.000119043194 7.5731823e-06 -7.0552637e-06
000340 2b 29 5e b8 4d 97 1f 38 87 5b 69 38 b1 37 d2 b7
       -5.2967265e-05 3.8049464e-05 5.563677e-05 -2.5059884e-05
000350 69 da 7e 36 e6 2e 0e b5 be 76 f5 37 df a8 2e 38
       3.797608e-06 -5.296737e-07 2.926157e-05 4.1642106e-05
000360 09 b0 cc 37 05 01 44 b7 7a af a2 38 29 3f 41 38
       2.4400668e-05 -1.1682748e-05 7.757447e-05 4.607361e-05
000370 8e e9 8d b7 b5 ad 3e 38 7d 6e 05 b9 f8 c4 df b8
       -1.6917267e-05 4.5461307e-05 -0.00012725029 -0.00010670157
000380 71 c7 06 37 b8 07 1b b9 e1 e2 10 b7 4b be 4f b8
       8.0334585e-06 -0.00014784827 -8.635893e-06 -4.952987e-05
000390 08 c2 3b 37 7a 45 0e 38 67 0e 89 37 81 74 16 b9
       1.1191245e-05 3.3920143e-05 1.633838e-05 -0.00014348516
0003a0 30 59 68 b9 e1 de a2 38 64 ce f8 b9 7d d5 6b b7
       -0.00022158469 7.7662764e-05 -0.0004745602 -1.4056798e-05
0003b0 ce 33 71 38 b1 32 b5 b6 94 52 a8 b7 46 aa 59 b7
       5.7507124e-05 -5.4001216e-06 -2.0065614e-05 -1.2973853e-05
0003c0 4d b3 af b8 ad ca 75 b7 b1 bc 89 37 d3 bc 69 38
       -8.378048e-05 -1.4650327e-05 1.6419539e-05 5.5727385e-05
0003d0 23 cb 9d 37 df 1d 8a b7 01 36 56 38 99 f3 d3 b9
       1.8810451e-05 -1.6464792e-05 5.107187e-05 -0.0004042655
0003e0 d3 8d 4a 37 44 c0 bb b7 97 20 0e b8 62 9a 01 b8
       1.2073159e-05 -2.2381668e-05 -3.388579e-05 -3.0899777e-05
0003f0 f0 79 03 38 4a d7 2a b5 f2 a7 0a b7 7b 1f 39 b7
       3.1346397e-05 -6.364322e-07 -8.264544e-06 -1.1034189e-05

exp_avg_sq f4 [64, 500]
000000 47 af 0d 36 1f 57 2a 30 b7 50 35 31 77 88 34 30
       2.1112662e-06 6.1969446e-10 2.6384848e-09 6.5677547e-10
000010 1d 92 e5 32 19 ba d9 34 b2 e4 6e 30 63 cf b3 32
       2.6725553e-08 4.0554804e-07 8.690889e-10 2.0932651e-08
000020 d6 72 be 33 72 dd d3 32 a3 6b 5b 30 2c 1c 08 31
       8.868453e-08 2.4664335e-08 7.9824697e-10 1.9806619e-09
000030 99 9d b5 30 91 2e 2f 33 f6 0d 75 31 7a 12 52 33
       1.3214275e-09 4.0787715e-08 3.5660128e-09 4.891124e-08
000040 e4 e9 2b 32 bf 8d f5 31 f0 07 0a 32 d0 3b 1c 33
       1.0006691e-08 7.146553e-09 8.034462e-09 3.637598e-08
000050 c5 b4 d9 32 9b e0 07 33 cc 54 b3 31 f1 77 f5 32
       2.534433e-08 3.1636414e-08 5.219226e-09 2.8576297e-08
000060 13 99 6b 33 2c a1 9d 32 e5 a6 1f 2d 88 dc a0 30
       5.485442e-08 1.8350498e-08 9.075162e-12 1.1704211e-09
000070 c8 b4 8e 31 63 48 98 30 c2 b0 37 31 a3 f3 5a 31
       4.1532964e-09 1.1080029e-09 2.673048e-09 3.1861667e-09
000080 5f a2 36 33 d9 fd e0 32 37 69 1e 32 cc 14 c3 31
       4.2522853e-08 2.6192469e-08 9.2207335e-09 5.6776113e-09
000090 d0 82 32 31 cc 61 7d 32 d6 a6 d6 30 79 b9 5d 30
       2.5976767e-09 1.4748775e-08 1.5617967e-09 8.0662904e-10
0000a0 34 3d 28 31 fb 1c 88 32 4b ab d8 30 89 53 fb 30
       2.4482008e-09 1.5845663e-08 1.5764753e-09 1.8286396e-09
0000b0 af 26 1b 31 cd 95 02 31 8b 10 d2 31 81 c5 de 2f
       2.2577458e-09 1.9002642e-09 6.113685e-09 4.05219e-10
0000c0 73 74 80 31 28 2b 17 34 24 81 18 32 c2 64 75 32
       3.738529e-09 1.4078671e-07 8.876928e-09 1.4283787e-08
0000d0 e3 66 e4 33 74 7d 0c 32 bb e3 de 31 f7 06 24 33
       1.0635792e-07 8.177597e-09 6.4869403e-09 3.819056e-08
0000e0 a8 ea 05 31 fb be c9 31 f1 35 0c 31 cc 32 38 33
       1.9487434e-09 5.871582e-09 2.0403343e-09 4.2887038e-08
0000f0 56 2f ba 32 1e db af 32 c9 9f 7a 31 1c a1 4a 30
       2.1674776e-08 2.0472324e-08 3.6470615e-09 7.371612e-10
000100 f8 bf 08 33 12 a0 07 30 d8 85 f1 31 d3 cd 35 33
       3.1839562e-08 4.934019e-10 7.0292394e-09 4.2329543e-08
000110 cc b5 4a 32 88 fc 12 30 56 58 5b 34 9a e0 a4 31
       1.1799283e-08 5.347336e-10 2.0428101e-07 4.7985624e-09
000120 04 b3 c3 32 44 f9 4b 32 cf 23 83 32 f4 52 ca 31
       2.2782395e-08 1.1872832e-08 1.5266691e-08 5.8884044e-09
000130 78 9e 45 31 a8 6c 34 30 5b be 5d 31 81 38 31 31
       2.8757352e-09 6.563803e-10 3.2267937e-09 2.5789009e-09
000140 16 dd da 32 8a cf 1e 33 e0 0f d0 2f cd 14 92 32
       2.5479078e-08 3.6975997e-08 3.784626e-10 1.7006096e-08
000150 18 d9 06 32 de 10 76 30 db db 1f 33 32 8b 6f 32
       7.849188e-09 8.951825e-10 3.722003e-08 1.394328e-08
000160 74 98 86 30 8e ce b2 34 05 71 ab 32 8a fc fd 32
       9.793113e-10 3.3305372e-07 1.9958415e-08 2.9567918e-08
000170 2b e9 87 31 84 45 05 32 d5 a6 03 31 95 50 3d 31
       3.9555252e-09 7.757425e-09 1.9157842e-09 2.7548925e-09
000180 e3 df 0d 32 60 90 6e 31 4c 0c 50 31 40 85 58 30
       8.258186e-09 3.4715626e-09 3.0274974e-09 7.87697e-10
000190 e2 5a 3f 31 db 71 12 2f 37 5b df 30 96 cf 63 30
       2.784582e-09 1.3319072e-10 1.625131e-09 8.2877116e-10
0001a0 64 65 7d 32 16 17 8e 30 1d 54 f2 31 4c a7 08 31
       1.4749592e-08 1.0338421e-09 7.0526895e-09 1.9885702e-09
0001b0 d8 a8 0b 33 97 c6 a0 31 0c 41 c6 32 3e f0 aa 33
       3.2517022e-08 4.67919e-09 2.3079814e-08 7.959942e-08
0001c0 f9 bd 9a 32 74 83 f9 31 a1 7d c1 32 69 e1 e0 32
       1.801435e-08 7.2617983e-09 2.2525287e-08 2.6179537e-08
0001d0 36 4c 48 30 77 2c c7 2f c0 aa 7a 32 b7 26 36 33
       7.286788e-10 3.6229483e-10 1.4590739e-08 4.2410388e-08
0001e0 eb 10 0a 32 70 c2 a7 33 91 56 e6 33 34 c5 98 33
       8.036504e-09 7.8119115e-08 1.0725956e-07 7.1139226e-08
0001f0 48 f3 01 30 71 e7 1d 30 5c 8a 0e 31 8f 17 f8 30
       4.727565e-10 5.7445165e-10 2.0742368e-09 1.8051071e-09
000200 68 d6 31 32 6e 7f b6 30 d7 ac ca 32 bd c8 ce 32
       1.0351506e-08 1.327846e-09 2.3594493e-08 2.4072841e-08
000210 d3 32 f5 31 ac bf 4f 31 3e f3 5d 32 9e 47 58 31
       7.1362165e-09 3.0231417e-09 1.29192e-08 3.1472847e-09
000220 04 d6 93 32 61 e6 dd 30 1a 85 1b 32 71 ac 66 34
       1.7210375e-08 1.6145344e-09 9.052451e-09 2.1483153e-07
000230 39 16 92 30 9a b3 e3 30 a6 bc 85 31 9a 92 a7 31
       1.0629214e-09 1.656747e-09 3.8922563e-09 4.8770064e-09
000240 c4 8c 8a 30 6e fa c1 31 a2 6f 4d 30 c2 3d a4 32
       1.008083e-09 5.64551e-09 7.4737205e-10 1.9120197e-08
000250 2e ed ee 32 e8 d0 2e 34 06 08 27 32 5a 85 71 31
       2.7814703e-08 1.6281012e-07 9.722504e-09 3.5145917e-09
000260 22 00 e7 31 5f 64 d4 30 ef 35 87 32 1c 38 1c 31
       6.723e-09 1.5453557e-09 1.5740595e-08 2.2732882e-09
000270 db 49 de 2f d0 0c 9a 31 04 c0 09 32 d9 81 25 33
       4.0434042e-10 4.4834465e-09 8.018109e-09 3.8535152e-08
000280 28 8f 1e 31 bf e7 4e 2f 1b 4d 73 31 af fc 05 32
       2.30734e-09 1.8817924e-10 3.5404983e-09 7.7990725e-09
000290 eb f0 19 30 0f f6 8b 31 ec f0 dc 33 9e 3f 23 30
       5.600344e-10 4.073406e-09 1.0288372e-07 5.938946e-10
0002a0 4e da 60 30 93 dd 84 30 59 1c d1 31 b7 cc 3f 31
       8.1800955e-10 9.667239e-10 6.0859233e-09 2.7910525e-09
0002b0 86 3c 00 31 8d 3d c5 31 93 fb 82 31 70 c2 e2 31
       1.8660855e-09 5.740452e-09 3.8120986e-09 6.5995707e-09
0002c0 be e8 ed 2f ba fa 83 31 30 0f 4e 31 19 88 4f 31
       4.3275422e-10 3.841106e-09 2.9985578e-09 3.0199827e-09
0002d0 8f 47 df 33 0c 2f 9d 2f 35 02 62 31 3f ac e1 32
       1.0397263e-07 2.8591562e-10 3.2888583e-09 2.6271776e-08
0002e0 24 6f da 33 f6 15 38 30 b6 67 28 32 84 f5 35 31
       1.01716324e-07 6.697002e-10 9.802468e-09 2.6478526e-09
0002f0 dc 31 e4 30 0b 64 36 33 da 00 41 32 7c f9 fd 31
       1.6603354e-09 4.2466166e-08 1.1234272e-08 7.391632e-09
000300 36 00 cd 2f c0 f0 dc 30 d1 53 8d 2f 42 9f 9c 32
       3.7289433e-10 1.6075532e-09 2.5707306e-10 1.8233212e-08
000310 3d d6 3a 34 b7 aa f4 30 e6 1c 6a 30 4e 78 64 32
       1.740054e-07 1.7801857e-09 8.516977e-10 1.3298701e-08
000320 b8 43 5d 32 d0 1e 63 33 f5 f8 32 32 55 5a 5a 31
       1.28792905e-08 5.288058e-08 1.041757e-08 3.1774523e-09
000330 b7 04 c5 30 63 b8 ef 32 1b 0c 25 32 76 94 e3 2f
       1.4334977e-09 2.7907111e-08 9.6070165e-09 4.1396547e-10
000340 88 8c 93 32 71 1d 44 30 e9 ff c1 31 1d 5a a6 2f
       1.7176959e-08 7.1346223e-10 5.646133e-09 3.0259253e-10
000350 26 f8 8a 2e 5d 6a a7 2d db d2 c7 32 2c eb 21 32
       6.3195935e-11 1.9032937e-11 2.3262535e-08 9.424905e-09
000360 f7 c0 17 32 23 90 8e 30 8e 82 d9 30 f0 89 44 30
       8.833232e-09 1.0372826e-09 1.5825934e-09 7.1500406e-10
000370 23 b1 eb 30 70 80 b6 30 67 8a 42 33 c5 c5 22 33
       1.7148846e-09 1.3278747e-09 4.529502e-08 3.7898435e-08
000380 cd a8 2b 32 e0 49 4b 33 f8 10 e6 31 1f e8 d0 31
       9.991891e-09 4.733181e-08 6.69581e-09 6.079986e-09
000390 8e b8 d6 2f 3e d9 0b 30 0d 76 2d 2f 78 6f b4 33
       3.9057507e-10 5.0876625e-10 1.5776198e-10 8.402179e-08
0003a0 de d9 cd 33 10 86 45 32 82 9d cf 34 ba cd dd 2e
       9.585686e-08 1.14973915e-08 3.8671357e-07 1.0086461e-10
0003b0 81 df 82 32 ae 37 a6 30 d3 fc 9f 30 a7 ee e5 31
       1.523563e-08 1.2093915e-09 1.164063e-09 6.691909e-09
0003c0 b7 ae 8b 33 f3 8a 5c 2f 50 28 c6 2f db a1 6b 32
       6.504472e-08 2.0058248e-10 3.6044634e-10 1.3715602e-08
0003d0 11 8b 1e 33 a2 0b 65 31 3b 6c f3 30 18 ed 09 35
       3.6913722e-08 3.3330498e-09 1.7711338e-09 5.1381494e-07
0003e0 ec 2b 74 31 4e df 52 30 2c b5 43 32 ce 4d 20 33
       3.553164e-09 7.671489e-10 1.1391688e-08 3.7323666e-08
0003f0 6a 70 4b 32 89 f6 83 2e 61 ac e0 31 f5 37 e9 31
       1.1841715e-08 6.000984e-11 6.5388552e-09 6.787554e-09

exp_avg f4 [3]
000000 d9 37 37 39 49 4e 19 ba 1f b4 d0 39
       0.00017473045 -0.0005848152 0.00039807052

exp_avg_sq f4 [3]
000000 b7 d0 e0 35 eb 30 d1 35 ee c0 57 34
       1.6750045e-06 1.558595e-06 2.0093623e-07

exp_avg f4 [3, 64]
000000 40 b1 ca 3b 7a dd 87 bb 8b 84 d4 bb ce d0 6a 3b
       0.0061856806 -0.004146275 -0.006485527 0.0035830024
000010 37 90 d5 bb 66 a6 3f 3b 9e d2 ce 3b d8 ed 6b 3b
       -0.006517436 0.0029243468 0.0063117286 0.003599992
000020 10 61 24 3b 66 50 cc bb 3b 25 d1 bb 85 40 d5 3a
       0.0025082268 -0.00623517 -0.006382612 0.0016269839
000030 51 4b cc 3b eb 10 db bb 34 f6 89 bb 99 a5 da 3b
       0.0062345644 -0.0066853664 -0.004210258 0.006672573
000040 e7 e4 92 bb 78 52 fb 3a 3a 5c b7 3b 6d d3 25 3b
       -0.0044828537 0.0019174358 0.005595711 0.0025303022
000050 09 b7 57 3b a9 01 ce bb 83 f5 d7 bb d2 35 64 bb
       0.0032915494 -0.006286819 -0.0065905466 -0.0034822118
000060 a9 02 2d bb 8f 2d 75 3b a6 8e d8 bb 26 31 2f bb
       -0.002639929 0.0037411188 -0.006608802 -0.0026732176
000070 eb 3d 37 3b f3 41 d6 bb c5 5f d2 3b 25 75 c7 bb
       0.002796049 -0.0065386235 0.006420108 -0.0060869628
000080 ad 90 78 3b 16 87 85 bb c1 a6 4c bb ef 8e 20 3b
       0.003792803 -0.0040749414 -0.0031227323 0.0024499258
000090 45 a2 09 bb ff 92 60 3b 5a 7b 44 bb 85 b5 e0 3b
       -0.0021001261 0.0034267304 -0.002998075 0.0068575763
0000a0 0c 8c da bb ad 93 56 3b 9c 59 d8 3b 0e b9 e0 3b
       -0.006669527 0.003274183 0.006602479 0.0068579977
0000b0 cc 19 2a 3b 7b a8 5d 3b 10 aa 37 3b fc 66 45 3b
       0.0025955318 0.0033822346 0.002802495 0.0030121198
0000c0 5f 5c d2 bb aa b0 61 bb b3 9c d2 bb c0 98 3c bb
       -0.006419703 -0.0034437575 -0.0064273714 -0.002877757
0000d0 20 14 d7 3b 76 94 1d bb f1 d8 6d 3b 51 dc 1a 3b
       0.0065636784 -0.0024044788 0.0036292637 0.0023629854
0000e0 7d be 1a bb c4 5f a9 ba ef fc c6 3b 8f 0b 66 bb
       -0.0023612075 -0.0012922217 0.0060726325 -0.0035102104
0000f0 8e 34 dd bb 0f 9d ce 3b 16 c6 d6 3b 3e 3b 18 3b
       -0.00675065 0.006305344 0.0065543754 0.002322867
000100 dd 51 15 ba 00 74 82 bb bb 85 44 3b 67 07 86 3b
       -0.00056960975 -0.0039811134 0.0029986936 0.004090238
000110 fc da 5c 3b 52 f5 8e 3b a4 fe 80 bb 33 97 8c 3b
       0.003369986 0.0043627406 -0.0039366055 0.0042904853
000120 64 46 f2 bb e9 a2 65 3b 81 88 c6 3a ed 63 ff bb
       -0.007393645 0.003503973 0.0015146883 -0.0077938945
000130 d8 8e 91 bb ba 09 03 3b 8d 99 8f bb 50 88 80 bb
       -0.004442077 0.001999481 -0.0043823184 -0.0039224997
000140 f1 11 c8 3b e8 6b f9 bb 70 82 b2 bb 7e e1 01 bc
       0.0061056544 -0.0076117404 -0.0054476783 -0.007927297
000150 74 0c 9f 3b 03 a5 32 3b f4 85 d3 3a 07 4d e5 3b
       0.0048537795 0.0027259 0.0016137944 0.0069977078
000160 f8 83 e0 3b 87 35 84 3b 26 c7 e3 3a c2 57 e8 3b
       0.0068516694 0.0040347013 0.0017378076 0.0070905397
000170 31 54 f9 bb 7f ad 2b 3b e5 da 91 bb 18 09 b1 b9
       -0.0076089134 0.002619594 -0.004451143 -0.00033766846
000180 25 a3 8e 3b 44 5b 8f bb ef 9c ed 3b 6b 39 f8 bb
       0.0043529444 -0.0043748934 0.007251374 -0.007575204
000190 04 36 ec 3b 6b 2a dd bb da a3 bb bb e6 15 59 bb
       0.0072085876 -0.0067494414 -0.0057263197 -0.0033124625
0001a0 3c 4b 00 3b f1 ba a5 3b ba 96 0f bb b7 b3 66 bb
       0.0019576093 0.0050576855 -0.0021909908 -0.0035202333
0001b0 a2 4b f9 bb 21 66 8f 3b db 68 00 bc 81 16 8f 3b
       -0.007607893 0.0043761884 -0.0078374995 0.0043666963
0001c0 be 5d 4b 3b a9 b9 e1 3b e7 6f 2e 3b 5c 41 b6 bb
       0.0031031216 0.0068885875 0.0026616992 -0.0055619907
0001d0 cd 10 04 bb 24 af eb 3b 04 70 8a 3b 3d ad 02 bc
       -0.0020151616 0.0071925092 0.004224779 -0.007975874
0001e0 81 e6 ee 3b f5 42 df 3b 87 63 82 bb 2e 94 87 bb
       0.007290662 0.006813402 -0.0039791497 -0.0041375374
0001f0 c9 55 4b 3b 13 ce e1 ba b8 3e 15 bb 67 68 01 bc
       0.0031026474 -0.0017227553 -0.002277298 -0.007898427
000200 71 67 b5 bb da 01 0c 3c 16 1c 73 3b 22 f4 fc bb
       -0.005536013 0.008545363 0.0037095598 -0.0077195326
000210 6e b6 3a 3b e6 05 fd bb 55 20 f1 ba 11 ab 08 bc
       0.0028490084 -0.0077216504 -0.0018396477 -0.008341567
000220 80 83 a4 3b 8b 54 2b 3b 51 71 9b 3b b7 f2 bc 3b
       0.005020559 0.002614292 0.004743733 0.0057662386
000230 56 f5 e5 ba 3c 2f 8b 3b 4e 1f 11 3c f6 a0 18 bb
       -0.0017544429 0.004247574 0.008857561 -0.00232893
000240 6e 85 a9 ba ac 25 b3 3b cf 15 c8 b9 b7 0f aa 3b
       -0.0012933442 0.0054671373 -0.0003816322 0.0051898616
000250 ee 42 00 bc bf 37 5b 3b 68 53 9a 3b f1 af 57 bb
       -0.007828457 0.0033449975 0.00470965 -0.0032911266
000260 79 ca 85 bb be ba 04 bc 61 9b a1 3b af 75 80 bb
       -0.0040829745 -0.008101163 0.0049318527 -0.003920279
000270 bc ac 98 3b b8 d0 52 3b 11 3a d3 ba 4d 28 d0 3b
       0.0046592634 0.0032167863 -0.0016115328 0.0063524605
000280 c2 99 01 bc a0 c8 15 3c 50 c6 6f bb a1 d7 a4 3b
       -0.007910194 0.009142071 -0.003658671 0.005030588
000290 b2 09 99 bb 14 d5 81 3b a0 76 0e 3c 7f 50 4e bb
       -0.004670345 0.0039621685 0.008695275 -0.0031481085
0002a0 9b ad 88 3b 22 e0 07 bc 4a 49 82 bb 0d 3e 53 bb
       0.004171086 -0.0082931835 -0.003976022 -0.003223303
0002b0 7a 21 90 3b d0 91 07 bc 30 a9 96 3b 0f e9 03 bc
       0.004398522 -0.0082745105 0.0045978054 -0.008051171
0002c0 10 9e 4d 3b a3 bf 54 bb 84 5a 88 3b 4b 1f 0f 3c
       0.003137473 -0.0032462857 0.004161181 0.008735488
0002d0 98 cd 8b bb 95 84 8f bb c5 0a 04 bc 57 15 a3 3b
       -0.004266452 -0.0043798187 -0.008059208 0.004976909
0002e0 66 30 91 bb ed 55 af bb 3b 3b 15 bb d4 7b 02 3c
       -0.0044308184 -0.0053508193 -0.00227709 0.007964093
0002f0 3c 70 80 3b 42 49 8f bb 85 78 88 bb 5d 50 b1 3b
       0.0039196294 -0.0043727467 -0.0041647577 0.0054111914

exp_avg_sq f4 [3, 64]
000000 3b 7b b1 37 5c c1 e7 36 96 16 ab 37 5c d7 c0 36
       2.1157428e-05 6.9068465e-06 2.0395306e-05 5.747117e-06
000010 29 5a af 37 88 65 c1 35 f4 69 9e 37 fa bb d3 36
       2.090361e-05 1.440917e-06 1.8884406e-05 6.3101734e-06
000020 2c b1 a1 36 06 52 95 37 3f 08 8e 37 79 ac d6 35
       4.8187994e-06 1.780038e-05 1.6931559e-05 1.5994439e-06
000030 7d 83 8c 37 f0 be 8b 37 41 be 29 37 21 c0 b7 37
       1.675053e-05 1.6659003e-05 1.0117482e-05 2.1904767e-05
000040 97 3a 08 37 91 c9 fa 35 14 42 87 37 db 90 4c 36
       8.119873e-06 1.8685115e-06 1.6124024e-05 3.0482686e-06
000050 bd 34 fd 35 c1 cc 70 37 60 b3 9c 37 d3 91 be 36
       1.8865318e-06 1.4352788e-05 1.8680177e-05 5.6794174e-06
000060 6c 8a bc 36 cf b2 e9 36 c5 b0 bb 37 cd ee 0f 37
       5.618951e-06 6.964757e-06 2.2374452e-05 8.579064e-06
000070 ad 5f cf 36 c1 53 a2 37 59 9d ad 37 89 64 8e 37
       6.180219e-06 1.9350906e-05 2.0696478e-05 1.6974534e-05
000080 77 38 fa 36 33 5b 18 37 d2 72 c6 36 93 23 a1 36
       7.457154e-06 9.08114e-06 5.9142267e-06 4.8023153e-06
000090 ab dc 10 36 25 ba 1e 37 16 a2 8f 35 12 84 b3 37
       2.1586118e-06 9.460874e-06 1.0701503e-06 2.1399963e-05
0000a0 77 b8 31 37 fd 4a 40 36 bc 0d ae 37 ca 57 c9 37
       1.0592971e-05 2.8653878e-06 2.0748812e-05 2.4001947e-05
0000b0 91 1a 25 36 a9 dd ab 36 1c aa c7 36 64 38 10 36
       2.460238e-06 5.1220018e-06 5.9504655e-06 2.1490496e-06
0000c0 08 e1 5f 37 f5 b5 0b 37 13 12 a9 37 1d b9 a7 35
       1.334423e-05 8.327411e-06 2.0154786e-05 1.2496345e-06
0000d0 d1 74 ba 37 e1 8e 99 36 45 e2 94 36 83 a9 91 35
       2.2227325e-05 4.5763886e-06 4.437085e-06 1.0852676e-06
0000e0 a7 8f 95 36 d7 37 31 34 a7 41 3b 37 79 a6 4c 36
       4.4572694e-06 1.6504724e-07 1.1161354e-05 3.0495269e-06
0000f0 f2 bf c8 37 96 fb aa 37 29 a9 ab 37 e1 6c 48 36
       2.393124e-05 2.0382733e-05 2.046356e-05 2.9865698e-06
000100 cf 75 69 35 97 0d 41 36 f8 b7 9c 36 1f da 9d 36
       8.69707e-07 2.8767151e-06 4.670579e-06 4.7043573e-06
000110 82 a8 e4 36 d4 18 70 36 32 e5 5c 37 c1 0f cb 36
       6.8145464e-06 3.5777239e-06 1.31663855e-05 6.0517054e-06
000120 ee e2 ad 37 c9 60 0d 37 f8 a3 1e 36 aa e8 c2 37
       2.072888e-05 8.4267895e-06 2.3639277e-06 2.3234945e-05
000130 d9 a1 6b 37 c2 36 32 36 d5 5c a4 36 ec 49 31 37
       1.4044775e-05 2.655594e-06 4.898388e-06 1.0567233e-05
000140 44 57 28 37 33 ff bc 37 ea b5 5d 37 c2 91 92 37
       1.0033898e-05 2.2530183e-05 1.3214982e-05 1.747243e-05
000150 f4 e6 d9 36 d9 5f 4b 36 d4 ef 96 35 97 7d 75 37
       6.4939904e-06 3.0305148e-06 1.124567e-06 1.4632379e-05
000160 15 08 79 37 75 96 8a 36 93 b6 5d 36 99 30 9e 37
       1.4843438e-05 4.130236e-06 3.3037838e-06 1.8857698e-05
000170 4f 23 b8 37 e6 52 a9 36 62 00 44 37 69 7a 97 34
       2.1950951e-05 5.046243e-06 1.16825995e-05 2.8215007e-07
000180 32 42 be 36 91 ce a5 36 1c e1 a4 37 8a cd b8 37
       5.6701474e-06 4.9414307e-06 1.9655148e-05 2.203022e-05
000190 46 6b 9e 37 a3 2e 75 37 ab cf 83 37 a1 71 9e 36
       1.888502e-05 1.4613996e-05 1.571312e-05 4.721995e-06
0001a0 fb ad 7e 35 f2 f5 0b 37 15 23 8b 36 97 5f 23 37
       9.487555e-07 8.342309e-06 4.146607e-06 9.737813e-06
0001b0 4f d2 4e 37 42 71 ef 36 1c 01 bb 37 05 c5 d5 36
       1.2327523e-05 7.13594e-06 2.2292654e-05 6.3708308e-06
0001c0 4b c8 8a 36 be 5c 94 37 3e e6 b9 36 90 a8 6d 37
       4.1360377e-06 1.7686161e-05 5.5402334e-06 1.4165547e-05
0001d0 2b 19 50 36 e6 22 91 37 bd 5a 65 36 43 04 a0 37
       3.1009065e-06 1.7301598e-05 3.4176476e-06 1.907547e-05
0001e0 e3 f2 a6 37 6b 0d 80 37 de e3 d3 36 09 87 48 36
       1.9901845e-05 1.5265037e-05 6.3148173e-06 2.9880923e-06
0001f0 6f 74 e4 36 4c 2a ee 35 cc 44 f6 35 38 b3 aa 37
       6.808484e-06 1.7744692e-06 1.8348451e-06 2.0349034e-05
000200 c4 0f 67 37 c8 62 9c 37 ce 4a cd 36 63 4a ab 37
       1.3772344e-05 1.8642648e-05 6.1181845e-06 2.0419428e-05
000210 01 b7 6d 36 d2 1b 2b 37 df 5d e8 34 c5 6f d9 37
       3.5422274e-06 1.0198872e-05 4.3281668e-07 2.5920463e-05
000220 34 17 d7 36 91 20 fe 35 a3 04 e6 36 e1 e6 47 37
       6.4102005e-06 1.8933953e-06 6.855074e-06 1.191508e-05
000230 6f c6 77 34 0d 59 b9 36 55 66 ee 37 c5 ab f9 35
       2.3075857e-07 5.5237965e-06 2.8419463e-05 1.8601937e-06
000240 47 44 04 34 be 52 3c 37 36 6f a5 34 ac b9 c6 36
       1.2318297e-07 1.1224938e-05 3.0814562e-07 5.922475e-06
000250 e0 ab 6e 37 14 0a 8a 36 c0 09 2b 37 11 d2 0a 36
       1.4225923e-05 4.1138937e-06 1.0194664e-05 2.0685877e-06
000260 c2 40 34 36 02 6e ba 37 09 42 16 37 f8 af 20 36
       2.6859784e-06 2.2224154e-05 8.956072e-06 2.3944285e-06
000270 42 83 b0 36 d6 9a 7f 36 04 3e 91 35 45 2a 6a 37
       5.260489e-06 3.8088087e-06 1.0821391e-06 1.39573285e-05
000280 b9 d9 ce 37 b5 af ed 37 57 4f 71 36 58 8d df 36
       2.4658499e-05 2.8334422e-05 3.595798e-06 6.6623725e-06
000290 ca d9 fd 36 4d 02 e2 35 f2 a5 c0 37 ef 75 b8 36
       7.5653415e-06 1.6838982e-06 2.2965458e-05 5.4973566e-06
0002a0 b6 fe 97 36 fa ae ac 37 07 b8 c3 36 02 32 6a 36
       4.529803e-06 2.0585478e-05 5.8328765e-06 3.4897826e-06
0002b0 8a 7f 58 36 6b 02 d9 37 5c c2 a9 36 a2 5d 93 37
       3.2260746e-06 2.5869542e-05 5.059219e-06 1.7567367e-05
0002c0 0a 59 2a 36 7c 1a 05 36 0b b9 b8 36 81 a6 c5 37
       2.5383802e-06 1.983396e-06 5.505169e-06 2.3561764e-05
0002d0 96 62 0b 37 67 95 90 36 11 25 83 37 4b 64 27 37
       8.307999e-06 4.308927e-06 1.5633677e-05 9.977327e-06
0002e0 45 8a b2 36 94 c3 50 37 cc 19 71 35 46 58 4f 37
       5.32091e-06 1.2443303e-05 8.9817036e-07 1.2358714e-05
0002f0 f2 56 c5 36 fe d3 27 37 bd cb 2e 37 93 1f 02 37
       5.8811793e-06 1.0003334e-05 1.0418645e-05 7.755955e-06
